30000DataVersion.pt (torch, 280532 bytes, 27 tensors)

_charemb.weight f4 [183, 64]
000000 bb 1c 91 bf 17 d5 b2 3f a3 f8 dc be c9 5b 01 3f
       -1.1336893 1.397128 -0.43158445 0.5053068
000010 f7 57 81 3f 18 dd bb 3f 8c 3a ca be 97 4b 04 bf
       1.010497 1.4676847 -0.39497793 -0.5167784
000020 96 e7 7f bf f4 68 e5 be d7 e6 21 40 6a d2 02 40
       -0.9996275 -0.44806635 2.5297143 2.0440927
000030 6d 10 b4 3e 86 9a 95 bf 1f b3 97 bf 9f f3 54 3e
       0.35168782 -1.1687782 -1.1851538 0.20796059
000040 42 d9 eb bd a5 9c 28 bf 4c 5e 3f 3f 5d 45 ba bf
       -0.11516048 -0.6586402 0.7475326 -1.4552418
000050 59 7c f3 bf 1c b9 97 3e b6 f3 95 bd 34 3b 8c 3f
       -1.9022323 0.29633415 -0.07321875 1.0955567
000060 e4 40 96 3e ad d0 d1 be df 55 c7 3e 81 b7 26 bf
       0.29346383 -0.4097952 0.38932702 -0.65123755
000070 43 2b 3d 3e 29 36 93 3f 53 a6 74 bd f3 fa e1 bf
       0.18473534 1.1500903 -0.05972893 -1.7654709
000080 a8 20 a0 be cc 30 df be 34 4f a6 3f f2 66 f8 bd
       -0.31274915 -0.43591917 1.2992921 -0.1212901
000090 c6 89 3a 3f 5b d5 c0 bc 60 6d bc 3f b5 1f 60 bf
       0.72866476 -0.023539236 1.4720879 -0.8754838
0000a0 41 87 e9 3e 41 76 3e bf ae ca 8c be ce 9c 81 3f
       0.45611003 -0.7439919 -0.27498382 1.0125978
0000b0 60 3f 64 3e 77 cc 00 bf c5 6a e9 3d db d1 e1 3f
       0.222898 -0.5031199 0.11397318 1.7642168
0000c0 ec 4a 40 3e 70 54 02 3e 37 7c 79 bf 92 a8 34 3f
       0.1877858 0.12727523 -0.9745516 0.7056972
0000d0 81 e5 2a bf f4 cd 32 3d f2 8e 9d be 91 cf b9 3f
       -0.66756445 0.043653443 -0.3077312 1.4516469
0000e0 a3 53 da 3f d5 1a 37 3f 4a aa 0c bd 94 11 97 bd
       1.7056774 0.7152532 -0.034342088 -0.073764
0000f0 ca ab 82 3f d5 a5 8c 3f 5b 77 32 be 07 cb ef 3d
       1.0208676 1.0988108 -0.17428343 0.11708646
000100 46 85 7c 3f cb 00 0b c0 bf 84 25 be 4b 94 bc be
       0.9864086 -2.1719234 -0.1616392 -0.3683189
000110 03 36 8b 3c 59 84 bf 3f 8a 4e 8a 3f 29 57 29 c0
       0.016993528 1.4962264 1.0805218 -2.6459448
000120 10 8e 65 bf 18 ab 63 3f 91 93 bb bf 3c 03 7b 3f
       -0.89669895 0.88932943 -1.4654409 0.9805181
000130 1e 7a 89 3e 88 2b 34 3e 8b 58 93 3f c8 5d 9e 3f
       0.2685098 0.17594731 1.1511396 1.237237
000140 be 96 3a be 69 0f 34 3d 90 48 8f bd ec 96 8e 3e
       -0.18221566 0.04396001 -0.06996262 0.2784952
000150 1f 78 5e 3f 02 01 20 be 66 d8 3b 3e 94 9f d6 bf
       0.8690204 -0.15625384 0.18344268 -1.6767449
000160 f1 b7 1e 3e ce 2b 72 bf d9 f0 54 3f 20 2f 14 40
       0.15499856 -0.9459809 0.83180004 2.3153763
000170 4b 01 bf 3f 9a ef 75 c0 8a 7f e0 3f 28 24 66 3c
       1.492227 -3.842749 1.7538922 0.014046706
000180 c6 ef 00 bf fb 1e 93 3f 9e 00 8d 3e 7e 33 fe bf
       -0.50365865 1.149383 0.27539533 -1.9859464
000190 28 95 2a 3f f6 e1 03 c0 1d 25 00 40 ab 1c bd bd
       0.66633844 -2.0606666 2.0022652 -0.092339836
0001a0 0c ec b4 bf 53 62 82 3f dc 6a 12 c0 24 a3 4e 3f
       -1.4134536 1.0186256 -2.2877722 0.8071768
0001b0 a9 91 01 40 d4 65 68 bf 9b a9 bd bf 2c 96 23 3e
       2.0245154 -0.9078038 -1.4817384 0.15975255
0001c0 2d d9 11 c0 8b b8 c8 bd 8a 56 33 bf 35 72 bd 3f
       -2.2788804 -0.09800824 -0.70053923 1.4800478
0001d0 d0 14 5f be 34 9f f3 3f ce 05 89 3f 55 8b 7f 3f
       -0.21785283 1.903296 1.0704896 0.9982198
0001e0 cf fc e6 bf 9c 89 78 be 3f 2b 6b 3e 9c 35 04 3f
       -1.8045901 -0.24271244 0.22965716 0.516443
0001f0 3e c1 79 bf 31 75 f6 3f bb 9d 8a bf 34 db 55 c0
       -0.9756049 1.9254514 -1.0829386 -3.341504
000200 32 9e 6f bf 66 8d 21 c0 22 09 de bf ae 51 3f bf
       -0.9360076 -2.5242553 -1.7346537 -0.7473401
000210 38 d1 85 3f 22 60 47 40 bd 78 b6 be d5 6b 64 bf
       1.0454473 3.1152425 -0.3563899 -0.8922704
000220 ec 0c a5 3e 80 f4 fc 3f 5b b8 9f 3f 08 ec 70 3f
       0.3223642 1.9762115 1.2478136 0.94110155
000230 28 14 8e bf 77 29 b6 bf f5 45 a7 be e2 b3 d8 be
       -1.1099901 -1.4231404 -0.3267056 -0.4232474
000240 f8 50 3d bf db 68 ea bf 2c 7f e1 be 91 90 fd be
       -0.73951674 -1.8313249 -0.44042337 -0.49524358
000250 90 e3 b8 3f 3a f7 ad 3f 42 16 52 3f 8e e9 ec bf
       1.4444447 1.3591073 0.8206521 -1.8508775
000260 59 12 f8 3e a9 0b fc 3f b1 37 65 3f 25 12 0c 40
       0.48451498 1.9691058 0.89538103 2.1886075
000270 df 33 d1 3f 2a 56 13 be 13 5a 51 3e 03 cd dc bf
       1.6343955 -0.14388338 0.20444517 -1.7250065
000280 16 cd 72 bf 37 56 ff 3e 4f 6e bf be 93 3a b4 bf
       -0.94844186 0.49870464 -0.37388846 -1.4080375
000290 67 aa 09 3f 91 ca e5 3e fd 77 9a bf 1f ad 59 bf
       0.5377564 0.44881108 -1.2067868 -0.85029787
0002a0 f2 1f e4 3e 7b 25 9a be 47 2c bf 3f 9e 12 99 bf
       0.44555622 -0.3010672 1.4935387 -1.1958807
0002b0 64 4d 00 40 92 09 46 bf 7c 49 8b bf ea 61 48 3e
       2.0047235 -0.77358353 -1.0881801 0.19568601
0002c0 fc 05 3f 3f 31 98 d4 3e f9 17 7e 3f c9 1b f3 3f
       0.74618506 0.41522363 0.9925533 1.8992854
0002d0 ac 1e 82 3f ce b9 f6 be cd 0c b2 be 3d fa 6e 3f
       1.016561 -0.48188633 -0.3477539 0.93350583
0002e0 b5 0f 4e c0 be 6a 34 3f 92 3b 1a bf 1a 0d e5 3e
       -3.2197087 0.70475376 -0.6024715 0.44736558
0002f0 a1 a3 48 3f 31 c3 b8 3f 29 a8 ad 3e 11 6a cc 3f
       0.7837468 1.4434568 0.3391736 1.5969869
000300 27 f8 a0 3f a2 c2 b0 3e 77 98 d3 3f 7e 2a ff bf
       1.257573 0.34523493 1.6530904 -1.9934843
000310 7d 46 9f bf 41 fd 7a be b2 e1 4f 3f f7 ef f1 bf
       -1.2443386 -0.24510671 0.8120376 -1.8901356
000320 c5 67 43 bf 41 68 09 40 9a 31 63 bf 78 2e 28 40
       -0.76330215 2.1469882 -0.8874756 2.6278362
000330 1c a8 39 3e 72 6f c2 3f 03 2b 80 bf 79 84 27 3e
       0.18130535 1.519026 -1.0013126 0.16359128
000340 40 82 9c 3f 76 d6 88 be d7 a8 b3 bd 5f 75 8e bf
       1.2227249 -0.2672612 -0.08772438 -1.1129569
000350 02 4b 09 c0 3a 59 94 3f 04 f1 9a 3e ce 9f 47 bf
       -2.145203 1.158973 0.30262005 -0.7797822
000360 52 86 ae 3f a3 e1 77 3f 6a 68 5c 40 06 13 df 3f
       1.3634741 0.9682867 3.443873 1.742768
000370 cb 43 0a bf d5 0b 6d c0 d6 83 db 3f c1 54 0a c0
       -0.54009694 -3.7038472 1.7149608 -2.161423
000380 a0 cf 6a bd be 10 a2 bf f3 8e 15 40 00 cf c6 3e
       -0.057326913 -1.2661359 2.33685 0.38829803
000390 f6 dc 9d bf c1 f6 28 c0 56 b8 80 3f 52 c0 33 bf
       -1.2333057 -2.6400607 1.0056255 -0.7021533
0003a0 19 c5 24 be de 3b 8c 3f df e0 b3 3f 3c 09 18 c0
       -0.16090812 1.095577 1.4053 -2.3755636
0003b0 14 43 45 3f 8c 87 00 3f 98 32 80 bf 54 3c 4c bf
       0.7705548 0.5020683 -1.001544 -0.79779553
0003c0 dd 52 ad bf 03 02 7f be d1 13 a5 be e7 72 81 3f
       -1.3540913 -0.24903111 -0.3224168 1.011319
0003d0 b9 de 4a 3e 16 5c 75 3f 9d f1 1f bf 0b f4 b5 3f
       0.19811524 0.95843637 -0.6247805 1.4215101
0003e0 e5 74 17 bf d2 68 1e bd 01 89 6b 3f 7c 14 26 3f
       -0.5916274 -0.038674183 0.92005926 0.64875007
0003f0 35 d7 b9 bf d9 33 3c 3f 1e 2f 48 be 39 0a 43 bf
       -1.4518801 0.73516613 -0.19549224 -0.76187474

_rnn.weight_ih_l0 f4 [96, 64]
000000 38 66 f0 3e 29 bf 88 be c8 50 ec 3e 48 fc 5b 3f
       0.46952987 -0.26708344 0.4615538 0.85931826
000010 65 c4 d0 be d3 2d 4e bf e0 ac 58 3f 7b 95 0e bf
       -0.40774837 -0.8053867 0.84638786 -0.5569684
000020 fc 03 25 be dd df 10 3e 0f 9d 02 3f fe 48 8f be
       -0.16114801 0.14147897 0.510209 -0.27985376
000030 01 78 af bf e1 1c a3 3e 60 80 94 bd bb 5b a8 be
       -1.3708497 0.3185797 -0.07251048 -0.32882485
000040 d5 b6 76 3e 45 b8 8f 3e c1 c3 f1 3d cb a4 02 3f
       0.24093182 0.28070274 0.11804915 0.51032704
000050 1b 99 ee 3e 00 10 3a 3d c8 42 0a 3f 97 66 80 3f
       0.46601185 0.045425415 0.5400815 1.0031308
000060 9b 68 b9 be d5 8d 13 3f ad 7f dc 3e 85 f3 2f 3f
       -0.3621262 0.57638294 0.4306616 0.68730956
000070 c4 75 43 be eb 91 0e be 51 da b8 be 0a 26 2c 3e
       -0.19087893 -0.13922851 -0.36104062 0.16811386
000080 79 44 7a 3f ff 25 e3 be 15 8d 90 be 57 91 c3 3e
       0.9776073 -0.44364926 -0.28232637 0.38196823
000090 a8 bd 1d be 18 7f 43 3f fd c0 15 3e 4a 9a 1c 3e
       -0.1540438 0.76365805 0.146244 0.15293232
0000a0 b7 8e bb 3e db e3 33 bf 58 fc 69 3f ab 54 83 3d
       0.3663232 -0.70269555 0.9140067 0.064126335
0000b0 27 ca 5d 3f ea 9c a5 3e 3d 26 de be 12 66 17 3e
       0.86636585 0.32346278 -0.43388548 0.1478503
0000c0 68 1e e1 bd bb 2b 31 bf 20 41 92 3e a7 67 d3 be
       -0.10992128 -0.6920735 0.2856531 -0.41290018
0000d0 26 4e 5d bc c2 e4 1b 3f 46 d1 46 be c8 d5 3e bf
       -0.013507402 0.6089593 -0.19415769 -0.74544954
0000e0 8b 50 22 3f 81 51 c4 3e f0 fc 91 be e9 08 1c bf
       0.6340415 0.38343433 -0.28513288 -0.60951096
0000f0 fb d6 8a 3f 9d ba 22 3f b4 96 2a 3f e6 d8 4f 3f
       1.0846857 0.63566 0.66636205 0.81190336
000100 19 8f a4 3e f0 72 ca 3e dd 24 2b bf 5f 97 55 be
       0.32140425 0.39540815 -0.66853124 -0.20858525
000110 d3 34 67 be 6e 2c eb bc 66 eb 95 be f1 d0 bb 3e
       -0.22578745 -0.02870771 -0.29281157 0.36682847
000120 20 d7 fa bd 31 ea 1b 3f 6c de 92 bf 8b ef 32 3f
       -0.12248063 0.6090422 -1.1474128 0.69896764
000130 3d 70 bf bb 65 01 39 bd c4 db fa be 69 f5 88 3f
       -0.0058422373 -0.045167346 -0.48995793 1.0699893
000140 6c 45 41 be 0e 60 80 3f e2 2a 6f 3f f6 5a 1e 3e
       -0.18874139 1.0029314 0.9342481 0.15464386
000150 bd fc d2 be 6b df a1 bf 7e b5 6f 3f c4 cb 84 3d
       -0.4120845 -1.2646307 0.9363631 0.06484178
000160 c4 6c 1f bf d0 7f a4 3f b5 80 45 bf dc 34 f3 be
       -0.6227534 1.2851505 -0.77149516 -0.47501266
000170 82 98 12 be 8a ef 2a bf 6a ff 3e 3f 1c 60 e9 be
       -0.1431599 -0.6677176 0.7460848 -0.45581138
000180 1d 11 9a 3e d6 12 d1 3e 3b ff 22 bf 9b 7c b1 be
       0.3009118 0.40834683 -0.636707 -0.3466538
000190 43 48 01 bf 93 3c 9a 3f 02 9a 01 bf 28 f2 3a 3f
       -0.5050089 1.2049736 -0.5062562 0.7302575
0001a0 30 59 1f 3e 57 79 fe 3e 1c c7 bf be 13 e9 9a be
       0.15561366 0.4970195 -0.37456596 -0.30255947
0001b0 e6 99 b2 3e e7 26 09 3f 1c 16 05 3f 22 75 30 bf
       0.3488304 0.53574985 0.5198686 -0.6892873
0001c0 5b cf 1b 3f ad 74 ad be 40 02 2e 3d 85 75 a3 3e
       0.60863274 -0.3387808 0.042482615 0.31925598
0001d0 b9 78 59 bf fe 80 01 bf 10 18 e6 be 76 9e 4d bf
       -0.84949833 -0.5058745 -0.44940233 -0.8031992
0001e0 5d 8a cc be ed 18 cb 3e 6a b9 16 3f c7 47 c8 be
       -0.39949313 0.39667454 0.5887667 -0.39117262
0001f0 89 a3 40 3e 4e ee 43 bf 65 ac 7d be 2a 58 e8 3e
       0.18812384 -0.765355 -0.24772795 0.45379764
000200 5b 57 05 3e b5 e1 2c 3f a9 1a 7b 3c 3f 3c 50 3f
       0.13021605 0.675319 0.0153261805 0.8134193
000210 5f 44 dd be 53 00 9d be a6 34 cb bc a2 7b 17 3e
       -0.43216226 -0.3066431 -0.024805378 0.14793256
000220 51 5d e3 3d 10 82 59 bf 37 31 85 3e 93 78 fc 3d
       0.11101783 -0.84964085 0.2601411 0.12327685
000230 af 36 26 3f 56 f7 dc be d4 35 2e 3f 66 9c 1f 3f
       0.6492719 -0.43157452 0.68050885 0.6234802
000240 4c 62 80 bf 62 25 34 3f 47 e0 a3 3e 2d 00 ab bf
       -1.0029998 0.7036954 0.32007048 -1.3359429
000250 ae a0 69 3e 2a 49 1d bd 6d d2 c7 be 98 00 7d 3e
       0.228152 -0.038399853 -0.3902773 0.24707258
000260 10 90 d2 be f1 27 3c bf 0e 8a 2c 3e 6a bd 9c 3f
       -0.41125536 -0.73498446 0.16849539 1.2245305
000270 44 da a3 3d a2 48 94 3f dd d0 37 3e 7e 43 36 3d
       0.08000615 1.1584666 0.17950769 0.04449796
000280 e5 40 04 bd 76 58 fd be c4 3c 0e be 2c 66 bb 3d
       -0.03228845 -0.49481553 -0.13890368 0.09150347
000290 60 bb 4a be 5f 74 31 3f 42 b4 9c 3e 57 f4 2b be
       -0.1979804 0.69318193 0.30606276 -0.16792427
0002a0 b1 b6 bd 3d d6 f0 b8 3e ff 8e 38 be a1 69 fe be
       0.09263361 0.36121243 -0.18023299 -0.49689963
0002b0 a6 53 fe be 6c 69 00 bf 8b 80 b4 be 19 79 3a 3f
       -0.49673194 -0.5016086 -0.3525432 0.7284103
0002c0 a7 73 5e 3f f6 f7 8f be df 94 c6 be f8 55 e9 bc
       0.8689522 -0.28118867 -0.38785455 -0.028483376
0002d0 71 75 74 be 5a d0 1d 3f 3c ab 0f 3e 06 b5 04 be
       -0.23872925 0.61646044 0.14030164 -0.1295968
0002e0 ce e9 35 3f 6e 0a 93 3e 0f 85 bf 3e 3e ad d7 bf
       0.7105988 0.28718895 0.37406203 -1.6849744
0002f0 e5 e2 ba 3e 42 80 5b 3f 0b de 14 3e 90 17 1a 3f
       0.36501232 0.8574258 0.14537828 0.60192204
000300 52 61 7a be ea db 3d 3e d9 ba 8e be c9 e8 0e 3f
       -0.24451187 0.18540922 -0.27876928 0.5582395
000310 23 61 87 be 29 90 dd bd b1 eb b2 3f 2c 90 b2 bc
       -0.26441297 -0.10818512 1.3978177 -0.021797262
000320 a2 52 ed 3d 50 17 39 bf 6b e7 90 3f 86 ad 97 be
       0.115880266 -0.723012 1.1320623 -0.29624575
000330 91 48 26 bf 45 32 ca bf 62 8a 7b 3c 45 a9 53 bf
       -0.6495448 -1.5796591 0.015352817 -0.8268016
000340 52 f2 05 3f 1d dc c0 bd e4 f4 cb 3e 33 64 e5 3e
       0.52322876 -0.09416983 0.39835274 0.44803008
000350 68 5c a8 3e 06 c0 28 bf da 4b e6 3e 06 cb 36 3f
       0.32883 -0.65918005 0.44979745 0.7140354
000360 70 97 57 be 30 e8 12 bf 29 fa c6 3d 6b 92 2f 3f
       -0.21053863 -0.5738554 0.09715683 0.6858279
000370 59 1a 76 3f 9e 6f 94 3e 5d 86 88 3f 51 20 f6 3e
       0.96133953 0.28991407 1.0666004 0.4807153
000380 0e 64 0c 3f e6 0a 87 3e bf 63 86 3c a5 06 fe 3e
       0.5484017 0.26375502 0.016404985 0.49614444
000390 09 77 9f be 83 1d 33 3f cf ed 10 bf e2 76 93 be
       -0.31145504 0.69966906 -0.5661287 -0.28801638
0003a0 95 9d ea 3e 22 8f 62 bf 15 26 58 be 9f 95 c1 be
       0.4582335 -0.88499653 -0.21108277 -0.37809464
0003b0 7d a5 e5 be 0a 9f 70 be 91 b4 5c bf 45 69 16 be
       -0.4485282 -0.23498169 -0.8621302 -0.14688595
0003c0 3e 8f 39 3d e0 ae 0e bf 11 78 7c be 1a d7 df 3e
       0.045302622 -0.5573559 -0.24655177 0.43718797
0003d0 89 98 9f 3d 29 44 1a 3f f7 e9 db 3d 75 6d bd 3e
       0.07792766 0.60260254 0.10737985 0.36997572
0003e0 8e 63 cf be 58 24 64 3f a1 40 60 bd f1 f0 1d bf
       -0.40505642 0.89117956 -0.054749135 -0.6169577
0003f0 c5 b5 a0 3e 1b c3 8a bd fd 34 2a 3f 63 65 3f bf
       0.3138868 -0.06775495 0.66487104 -0.7476408

_rnn.weight_hh_l0 f4 [96, 32]
000000 81 79 9f bc 18 e0 6e bf 5a b8 d2 be 30 11 24 bf
       -0.019467117 -0.9331069 -0.41156274 -0.64088726
000010 ef 74 a8 3b 3d 53 b4 3e d1 db 4d 3e 4a f6 fc be
       0.0051408927 0.35219756 0.20103385 -0.49406654
000020 40 f7 66 bf d1 1f b8 be 2c 79 6e 3f 7e 44 e4 3e
       -0.90221024 -0.35961774 0.93153644 0.44583505
000030 05 68 a9 bd bf 03 5e bf be e2 13 bf 4d e6 f5 be
       -0.08271793 -0.86724466 -0.57767856 -0.48027268
000040 de 32 ec 3e 37 73 40 3f 89 36 04 bf f5 42 d3 be
       0.4613256 0.75175804 -0.51645714 -0.41262022
000050 94 1d 22 bf 18 0b 7b 3f d7 b4 b0 3e ba 0a 67 3e
       -0.6332638 0.980638 0.3451297 0.22562686
000060 1a f1 b1 be c9 ad e1 be 3e 4f 9d bd 71 82 46 bf
       -0.34754258 -0.440779 -0.0768113 -0.7754279
000070 84 a8 30 3f 9f 09 28 bf 74 24 8f be d1 c8 1d bf
       0.69007134 -0.6563968 -0.279575 -0.61634547
000080 b8 18 36 bf 86 50 65 be ce 94 f6 3d b2 e6 e1 3d
       -0.7113147 -0.22393999 0.12040101 0.1103033
000090 31 bc 04 3f 68 8d 94 3e 1c 28 0b bc fa e5 84 3e
       0.5184966 0.29014134 -0.00849345 0.25956708
0000a0 b2 05 fc 3e e1 26 fb bd e8 21 49 be 18 ea 82 be
       0.49223095 -0.12263275 -0.1964184 -0.25569224
0000b0 67 5a 1d 3e 1b 88 02 bf d0 64 fa 3e 69 72 24 3f
       0.15366517 -0.5098893 0.4890504 0.64237076
0000c0 51 74 7c be 37 77 76 3f c6 b3 1a bf 76 44 04 3f
       -0.24653746 0.9627566 -0.6043056 0.51666963
0000d0 bd b5 4f 3e 71 ce 44 bf 52 2f aa bf dd b9 98 3e
       0.20284171 -0.76877505 -1.3295691 0.29829302
0000e0 d5 92 98 be 6f 38 ca 3e 1a 58 7b 3e e0 9c 00 bf
       -0.29799524 0.3949618 0.24545327 -0.5023937
0000f0 ae 1d 0e bf 5f 88 cc 3e 70 f8 eb be 0a 76 a5 3f
       -0.5551404 0.39947793 -0.4608798 1.2926648
000100 7c 84 cc be 39 8c 74 bd 8b 8f 2b bf b7 d9 fc 3d
       -0.39944828 -0.05970404 -0.67015904 0.12346213
000110 00 b0 4a 3f d5 6a a0 3d df d7 b4 bf 2a 63 20 3f
       0.79174805 0.078328766 -1.4128379 0.6265131
000120 df ff 9d bd 50 ba 2e bf 00 49 4f be cf be 46 be
       -0.07714819 -0.6825304 -0.20242691 -0.19408725
000130 d7 0f 87 bf 26 f8 5a be 59 5b 60 be e8 98 a2 bf
       -1.0551709 -0.21383724 -0.21909846 -1.2702913
000140 1c c5 70 be 84 c6 f1 3e 5f c7 2c be 5f d3 15 bf
       -0.23512691 0.47221768 -0.16872929 -0.5852565
000150 e5 34 16 be 73 42 ca be 91 7b f4 be 75 e2 ad 3d
       -0.14668615 -0.39503822 -0.47750524 0.08490459
000160 14 15 96 bd ce a4 1b bf 37 56 68 3e e6 b3 2f bf
       -0.07328239 -0.60798347 0.22689138 -0.6863388
000170 c6 e3 86 3e ff 49 62 3b 2a f3 1f bf f1 71 cd 3f
       0.26345652 0.0034528968 -0.62480414 1.6050397
000180 49 fb 35 3f 66 0e 18 bf f0 6e f1 3d b2 25 1e bf
       0.71086556 -0.5939697 0.11788738 -0.6177627
000190 2f fb c6 3e 5d f6 9f 3e 84 71 a1 3e 5e 91 8f bf
       0.38863513 0.31242648 0.31531918 -1.1216238
0001a0 f7 57 9a 3d 5a c1 88 3c 60 36 1f be fc 35 90 3f
       0.07536309 0.01669376 -0.15548086 1.1266475
0001b0 73 65 94 3e 29 86 3c 3f ed 99 64 bc bb f4 75 3e
       0.2898365 0.7364221 -0.013952714 0.24019139
0001c0 37 d5 e7 bf a0 8e e3 3e 60 07 f8 bd 28 03 68 3f
       -1.8111943 0.44444752 -0.12110782 0.90629816
0001d0 19 1c 23 3e 9b df b5 be e7 93 47 3f 55 4b 24 3e
       0.15928687 -0.3552216 0.77960056 0.16044362
0001e0 8b 09 07 bf 9b 8d 22 3f 6e 80 b8 bd 52 cc 64 3e
       -0.52748936 0.6349732 -0.09008871 0.22343567
0001f0 79 34 84 3e 31 6e 87 be e8 19 15 3d b2 76 6f 3e
       0.25821283 -0.26451257 0.03640166 0.23385122
000200 95 6a 9e 3d 44 b2 70 bf 45 9d 5e 3f d3 c1 96 3e
       0.07735173 -0.9402201 0.86958724 0.2944475
000210 63 95 4f 3f 33 bb 05 3d ba 7e a4 be 87 e4 39 be
       0.8108732 0.03264923 -0.32127935 -0.18153583
000220 2b d9 a9 bd 90 b1 25 3f 0e 42 2c bd 10 fc e7 be
       -0.08293375 0.64724064 -0.042055182 -0.45309496
000230 67 d7 03 bf 43 cb b1 3e e9 72 0f bf 60 40 40 be
       -0.5150055 0.3472539 -0.56034714 -0.18774557
000240 b2 28 41 3f 06 2b 02 3f 49 e9 40 bf 3c f5 bb 3e
       0.7545272 0.508469 -0.75355965 0.36710536
000250 22 41 92 be 2c 38 d7 be 22 9f cf be 49 b9 e2 3e
       -0.28565317 -0.42035043 -0.40551096 0.44281986
000260 85 9e f7 be e7 64 73 be af 0b 17 3d 06 4c d0 be
       -0.48363128 -0.2376896 0.036876377 -0.40683
000270 6d b7 5d bf 48 b0 07 3f 39 92 a4 be ee 84 30 3e
       -0.8660801 0.5300336 -0.3214281 0.17238209
000280 6a 57 00 be d0 af 14 3f 02 2d e3 3e 70 99 cd bf
       -0.12533346 0.5808077 0.44370276 -1.606245
000290 d5 70 83 3e 44 e9 02 3f 9e 14 e7 3e cd cc 03 bf
       0.25672022 0.51137185 0.45132917 -0.51484376
0002a0 bb 4d a4 be 07 c2 24 bf b6 1e 39 3d fa 5c 4f 3f
       -0.32090554 -0.6435856 0.045195304 0.81001246
0002b0 a5 6b 19 3e d0 e0 14 bf 04 5d a9 be 39 31 e0 be
       0.1498247 -0.58155537 -0.33078778 -0.43787554
0002c0 97 46 43 bf 34 76 1d bf 09 4c 18 3e 4b a0 29 bf
       -0.76279587 -0.6150849 0.14872755 -0.6626021
0002d0 93 80 54 bf 1c e4 64 3f db 26 34 bd 8e 46 02 bf
       -0.8300869 0.8941057 -0.043982368 -0.5088891
0002e0 75 5b 58 3e fa 5a 6f 3e 23 51 e4 be f6 71 01 be
       0.21128638 0.23374549 -0.44593152 -0.12641129
0002f0 67 bb 2b bf b0 c8 27 bf 5a 89 b6 3e 68 b2 4c 3f
       -0.6708283 -0.655406 0.35651666 0.79959726
000300 74 91 2e 3f a7 58 46 be 59 2a 1f 3f 92 8b 52 bf
       0.68190694 -0.19369756 0.6217399 -0.8224422
000310 5a 73 89 3e e8 22 0b bf 07 2c 9a 3e 6b 09 73 bf
       0.2684582 -0.5435014 0.30111715 -0.94936246
000320 9d ef e3 3e 0b 85 75 bf f1 3d 12 3f 13 a5 bf 3e
       0.44518748 -0.9590613 0.57125765 0.3743063
000330 4b 21 d0 3e 1f b9 fd be 0c 0a 97 3d 96 cd cf 3e
       0.406504 -0.495553 0.07374963 0.40586537
000340 fd 34 0c bf ce 48 5c bf 0d 36 92 bf b3 4a 7a bf
       -0.54768354 -0.8604859 -1.1422745 -0.9777023
000350 37 20 30 3e 8a 95 bd 3d d3 17 a1 3e 8a f0 1a bf
       0.17199789 0.09257038 0.3146349 -0.60523283
000360 8a bb 5a 3f 20 0d 57 3f a7 be 3f be 83 6d 0f 3f
       0.8544241 0.840044 -0.18725072 0.56026477
000370 1f f4 df be 51 3d fa be 3f d6 c0 3e 7f fa 0f 3e
       -0.43740937 -0.48874906 0.37663457 0.140604
000380 41 29 47 3e 9d d4 47 3d fa e9 14 bf 86 8a 0e 3e
       0.19449331 0.04878675 -0.5816952 0.1392003
000390 a7 e8 03 be 88 69 91 3d e2 7c f4 be c3 83 4e 3f
       -0.12881719 0.071002066 -0.47751528 0.806698
0003a0 19 92 0a 3f 31 cc 44 bf 07 8c 16 3e 44 a3 53 3f
       0.5412918 -0.7687407 0.14701854 0.82671
0003b0 4f d1 02 be 5d c1 b7 be ca 1c 7a bd 00 16 a4 3e
       -0.12775157 -0.35889712 -0.06106261 0.32048035
0003c0 7a 02 39 3e 3c b7 15 3f e8 37 02 3e 06 a8 44 bf
       0.18067351 0.5848272 0.12716639 -0.76818883
0003d0 96 10 da bd d8 a1 df be 4f 37 4b bf 06 25 86 3f
       -0.10647695 -0.43678164 -0.7938127 1.0480049
0003e0 ce 00 ef be 2a 22 77 3e 1c 3e 5e 3f 27 75 80 3f
       -0.466803 0.24134126 0.8681352 1.0035752
0003f0 0b bb c6 bd 36 f2 e8 bf da c7 c1 3e 8b 63 2d 3f
       -0.09703644 -1.8198917 0.37847787 0.67730016

_rnn.bias_ih_l0 f4 [96]
000000 43 69 85 be c8 5c 1f bf 0e 83 86 be 9b 04 b8 3e
       -0.2605687 -0.6225095 -0.26271862 0.35941014
000010 6e e0 2a bf af 89 8d 3e d5 e1 10 3e 96 13 cd 3e
       -0.667487 0.27644107 0.14148648 0.40054005
000020 c4 49 5c 3e c1 f5 1e bd 13 90 c1 bd d8 aa 74 bf
       0.21512514 -0.038808588 -0.09451308 -0.95573187
000030 a4 c9 26 3c 69 e8 ec 3e bc 27 57 3f 70 ac c3 3d
       0.010179911 0.46271065 0.84045005 0.09554374
000040 b4 89 b5 3e 1c ef ea be 82 9f 00 3e 90 06 1f bf
       0.35456622 -0.4588555 0.12560847 -0.6211939
000050 7e df 3e 3c e3 8e 1c 3e 0f 2d d3 be b6 a7 b2 be
       0.011649964 0.15288882 -0.41245314 -0.34893578
000060 ae 40 71 be d0 f7 fe 3d f2 44 45 be 6b c9 e6 3e
       -0.2355983 0.1244961 -0.19264582 0.45075545
000070 26 d6 f4 bd d7 fc 09 bf c1 e0 7b 3f cd c4 06 bf
       -0.11954908 -0.5390143 0.9838982 -0.52644044
000080 ab 35 bf be 3f bd 61 bf 14 36 88 bf e6 b3 74 bf
       -0.37345633 -0.8817939 -1.0641503 -0.95587003
000090 f1 50 96 bf 1a ed 6b bf c9 43 95 bf eb 17 3f bf
       -1.1743451 -0.92158663 -1.1661311 -0.7464587
0000a0 d6 c1 24 bf 63 da 35 bf d6 38 71 bf a3 f9 ed be
       -0.6435827 -0.71036357 -0.9422735 -0.4647952
0000b0 ee 56 8e bf aa d9 8d bf 9c 4a 29 bf fa e7 0a bf
       -1.1120279 -1.1082051 -0.6612947 -0.5426022
0000c0 b4 05 43 bf e6 b1 45 bf 75 83 86 bf dc 07 74 bf
       -0.7618058 -0.77224576 -1.0508868 -0.9532449
0000d0 cc 41 a6 bf e7 12 86 bf c8 8e 54 bf 6b b3 c0 bf
       -1.298883 -1.0474519 -0.83030367 -1.5054754
0000e0 9d 25 83 bf 48 48 33 bf fb 9b 1d bf 45 d5 94 bf
       -1.0245854 -0.7003217 -0.6156613 -1.1627585
0000f0 65 60 1b bf 8d 28 88 bf b9 86 51 bf 32 66 2b bf
       -0.6069396 -1.0637375 -0.81846195 -0.6695281
000100 51 ad 22 3e f0 5f 56 3e 1a a1 03 bc 07 56 d2 bd
       0.15886427 0.20935035 -0.008034015 -0.10270315
000110 df fd 80 bd 83 fe 4c bd e6 95 8c be 50 99 43 be
       -0.06298422 -0.05004741 -0.27458113 -0.19101453
000120 f7 c2 1c 3f ad 6b 90 3b 95 61 f5 be 75 71 16 3e
       0.6123499 0.004407367 -0.47926012 0.14691718
000130 bf 35 9c be d5 e2 0c bc 17 10 9a bd 78 93 6b 3d
       -0.30509755 -0.008599003 -0.075226 0.057513684
000140 57 1e 43 3e 9e 3e cc 3d 96 fe 6e 3d 79 79 91 3c
       0.19054542 0.09972881 0.05834826 0.017758118
000150 1a 97 f0 bd 44 36 4e 3e ec e4 bd bd 0a 64 de 3e
       -0.1174757 0.20137888 -0.09272179 0.434357
000160 1c b4 b4 3e ff 62 f7 3c 90 f9 ad be 6b e6 0b be
       0.35293663 0.030198572 -0.33979464 -0.13662116
000170 c3 d4 23 3e 16 69 82 3e 39 55 e9 3e cd 08 91 be
       0.15999131 0.254708 0.45572832 -0.28327027

_rnn.bias_hh_l0 f4 [96]
000000 b4 1c 05 be e5 6a 0a bf 0a 41 ac bd dc 53 be 3e
       -0.1299923 -0.5406936 -0.08410843 0.37173355
000010 b2 98 e4 be bc b5 82 3e b1 87 36 bd 56 a3 c5 3d
       -0.44647747 0.25529277 -0.044563 0.096502945
000020 83 01 ee 3d d9 97 38 be 61 e5 bb bd 10 ca 5a bf
       0.11621382 -0.18026675 -0.0917461 -0.8546457
000030 19 d2 bb 3d f9 aa 8c 3e 69 26 75 3f b0 92 69 3e
       0.09170932 0.27474192 0.95761734 0.22809863
000040 96 83 d1 3e a1 d1 b2 be 90 c4 d1 bc e0 7c 13 bf
       0.40920705 -0.3492556 -0.025606424 -0.5761242
000050 b9 bb b1 3d 94 27 49 3b 62 64 d2 be a0 11 af be
       0.086783834 0.0030693756 -0.4109221 -0.34193134
000060 f6 bb 20 be f3 42 4f 3e b2 88 a8 bd b5 d3 d3 3e
       -0.15696701 0.20240383 -0.082291976 0.41372457
000070 e9 d9 33 be 88 70 21 bf ec 10 32 3f eb 52 60 be
       -0.17563595 -0.63062334 0.6955707 -0.2190663
000080 33 1f fa be 4c 55 8a bf a2 31 77 bf d6 84 3a bf
       -0.48851928 -1.080728 -0.9656011 -0.7285894
000090 bd b1 a7 bf 8d 74 79 bf 22 84 8f bf c6 88 5d bf
       -1.3101116 -0.9744347 -1.1212199 -0.86536825
0000a0 16 79 52 bf 20 8a 08 bf 44 3d 52 bf 6b eb 0d bf
       -0.8221601 -0.5333576 -0.82124734 -0.55437344
0000b0 e1 1e 96 bf 44 06 a6 bf 3e 12 7f bf 1d e7 48 bf
       -1.1728173 -1.2970662 -0.9963721 -0.7847765
0000c0 da f4 82 bf 90 ee 1c bf 96 a0 56 bf 12 51 57 bf
       -1.0230973 -0.6130152 -0.83838785 -0.8410808
0000d0 7c 41 b1 bf df a3 82 bf b5 fb 5b bf d0 d2 96 bf
       -1.3848109 -1.020626 -0.8593095 -1.1783085
0000e0 c9 a0 83 bf ca 72 53 bf c3 d2 07 bf 72 d7 7a bf
       -1.0283443 -0.8259703 -0.5305597 -0.97984993
0000f0 37 a2 21 bf 4c 68 5a bf 31 5a 85 bf 71 6e 49 bf
       -0.63138145 -0.85315394 -1.0418149 -0.78684145
000100 21 7f 00 3c 5e d3 03 3f c5 1f 07 bf c1 f3 bf 3d
       0.00784281 0.51494396 -0.5278285 0.09372664
000110 2a 1f dc bd 72 27 2b 3e 87 27 cb 3e 7e fe a6 be
       -0.107481316 0.16714266 0.39678594 -0.32616037
000120 a2 42 5e bd 20 a8 5f 3e 1f be 10 3f 1a 23 63 bb
       -0.054262765 0.21841478 0.565401 -0.0034658373
000130 61 7d 10 bf fa 96 f6 3e 30 15 e6 3d 92 ca 0e be
       -0.56441313 0.4816206 0.1123451 -0.13944462
000140 ca 82 bb 3d 7f d5 13 3e 4a 89 15 be 2a e5 ce 3d
       0.091558054 0.14436911 -0.14603153 0.10102303
000150 66 03 b3 3b 08 41 71 bd 05 45 55 bd 62 6e ca 3e
       0.0054630516 -0.05889991 -0.052067775 0.3953734
000160 d4 76 c3 3e 19 18 0f be 80 26 09 be 1b 95 8f bc
       0.38176596 -0.13974036 -0.13393593 -0.017527154
000170 50 ba 41 3e 9c 7b e7 3e 14 eb 2c be db 2b 2c be
       0.18918729 0.45211494 -0.1688655 -0.16813605

_rnn.weight_ih_l0_reverse f4 [96, 64]
000000 20 55 9a be 41 50 ea 3f 5c 78 97 3e 88 dc 32 bd
       -0.3014307 1.8305742 0.29584014 -0.043667346
000010 a8 59 63 3f 19 0a 37 3f 3b 69 9c bb bc 81 ef 3a
       0.8880868 0.7149978 -0.0047732866 0.0018272917
000020 11 86 8d 3f 40 fb 80 bf a8 a7 bb 3f 81 19 d2 be
       1.1056539 -1.0076675 1.466054 -0.41035083
000030 45 44 54 bf 61 09 75 bd 18 c1 3c bd c2 2d c0 3b
       -0.8291667 -0.059823398 -0.046082586 0.0058648298
000040 ff f7 14 bf e3 b4 8e 3f 34 0d 86 3d c4 16 3d 3f
       -0.5819091 1.1148952 0.06545487 0.7386286
000050 8d 3c 63 be e8 12 ef be 18 c4 50 3f 91 e4 23 3e
       -0.22191067 -0.46694112 0.81549215 0.1600516
000060 47 55 75 bd 3a ba e1 3e c3 f5 ec 3e 6e 75 e3 be
       -0.05989578 0.44087392 0.4628125 -0.4442553
000070 3d 1b 24 3f 63 e5 96 be c9 ac ea 3d c2 20 cd be
       0.6410406 -0.29471883 0.114587374 -0.40064055
000080 e3 9e ab be 90 42 ab be b3 5c 04 3f cc d4 91 3f
       -0.33519658 -0.3344922 0.5170395 1.1393065
000090 fc 28 de 3e bc b1 85 bd e5 ec a0 bd 7a b8 94 bf
       0.43390644 -0.06528041 -0.07857684 -1.1618798
0000a0 e3 1a 90 3e ea a2 82 bf 71 92 30 be 41 51 96 3f
       0.28145513 -1.0205967 -0.17243363 1.1743547
0000b0 cf 8c 0c bf cc 4d d8 bd 80 9b 55 be 73 e0 38 3e
       -0.54902357 -0.105617136 -0.208601 0.1805437
0000c0 94 1c 0b bf d8 32 93 3e 24 7f f7 3d f5 b8 0a bf
       -0.5434048 0.28749728 0.12084797 -0.5418847
0000d0 64 1c 34 3e 81 7d f9 3e 5e f6 a0 3e 49 3e 16 be
       0.17588955 0.48728564 0.31437963 -0.14672197
0000e0 8d 7a 0f 3d a7 1f 06 bf ae e7 47 bf 9d 2c cb 3e
       0.035028983 -0.5239205 -0.7808789 0.39682475
0000f0 e2 84 25 bd 97 23 4c be 38 6c 9f be 99 02 40 bf
       -0.04040993 -0.19935451 -0.31137252 -0.75003964
000100 32 3f 7c 3e 0c 3a 39 bf dc 30 82 3e b6 5b 08 3f
       0.24633482 -0.723542 0.25427902 0.5326494
000110 5b 77 86 bd 6f a9 30 bf 18 eb 89 3c ef 27 43 3f
       -0.06565734 -0.69008535 0.016835734 0.7623281
000120 9e e0 11 bf 2b 44 8d 3e 27 e3 72 3f d5 4d 03 3f
       -0.56983364 0.2759107 0.94877857 0.5129064
000130 e1 72 28 3f 1f 28 5f 3f 34 d3 80 bf 6e 7c 9e 3d
       0.6580029 0.87170595 -1.0064454 0.07738577
000140 5f b5 62 bf 6f 3f a7 be 38 3b 96 3e 99 01 bb be
       -0.88558 -0.32665583 0.29342055 -0.36524656
000150 33 3a 0a be bf 71 02 be 36 30 12 be fc d2 07 bc
       -0.13498764 -0.12738703 -0.14276204 -0.008290049
000160 b2 fe 3a 3f 84 4f 35 bf 58 54 fa be ad 38 28 bf
       0.73044884 -0.70824456 -0.48892474 -0.6571148
000170 be 6e af 3e a4 27 a0 3e ba 31 f1 be da 4d 41 3e
       0.34264177 0.31280243 -0.4710825 0.18877354
000180 70 14 0d 3f ac 71 8e 3f a6 ca d5 be 07 39 04 3f
       0.5510931 1.112844 -0.4175617 0.51649517
000190 01 c1 53 bf 14 58 9a 3d 6e 92 bc 3e d4 57 2f bf
       -0.82716376 0.07536331 0.36830467 -0.6849339
0001a0 c7 a3 ac be f6 98 a6 be 2d ba 90 be dc 67 1d 3f
       -0.33718702 -0.32538575 -0.2826704 0.614866
0001b0 32 05 4c bf 2f b2 64 3d 59 4d 20 bf 04 ee b7 3c
       -0.7969543 0.05583399 -0.62618023 0.022452362
0001c0 85 de 59 3f 11 b5 55 3e 36 5b df be 25 4f 32 bf
       0.8510516 0.20869853 -0.43624276 -0.69652015
0001d0 af da 82 3c 18 7a 24 bd ec b2 16 bf f1 aa db be
       0.015973417 -0.0401555 -0.58866763 -0.42903855
0001e0 8a 6c f8 bd 12 d3 bb be f0 7f 54 be 6d 97 0a bd
       -0.12130077 -0.3668447 -0.2075193 -0.033835817
0001f0 28 fa 20 3e 0a d8 77 3e a6 e6 9d be 9d de 2a be
       0.15720427 0.24203506 -0.30840033 -0.16686483
000200 93 8d 4c bf ae cf 30 3e c0 da f0 3e f8 db e6 3e
       -0.79903525 0.17266724 0.47041893 0.45089698
000210 2a a9 19 bf 17 81 c2 be 66 37 ea be ef cc b9 3d
       -0.6002375 -0.37989113 -0.4574539 0.09072291
000220 ea 58 53 bf 6a 34 af bc 0d 15 8d 3e b2 36 ee be
       -0.8255755 -0.021387298 0.27555123 -0.46526104
000230 b4 52 d8 bd 3e e1 9a bf 08 1d 10 3f 99 7c 9b 3e
       -0.10562649 -1.2099988 0.562943 0.30368498
000240 2e cf 94 3e 08 41 80 3f b9 d1 6a 3e e8 b1 d0 be
       0.29064316 1.0019846 0.22931565 -0.40760732
000250 17 a3 26 3f bd c9 fe be 22 a0 8d bd dc 90 bf bd
       0.65092605 -0.4976329 -0.069153085 -0.093538016
000260 aa ff 90 bf a6 d9 2a 3f fd 61 98 3e e8 92 bc 3e
       -1.1328022 0.66738355 0.2976226 0.3683083
000270 6c 4a dd be 82 aa 2b 3e 0b 22 10 3e a1 f9 82 bf
       -0.43220842 0.16764262 0.14075486 -1.0232431
000280 73 cc 3d 3f a1 ee 79 3d 7b 86 da be 74 c1 48 3f
       0.7414009 0.06101859 -0.42680725 0.78420186
000290 de d9 d9 be 2a 91 ac be b2 c4 8a bc 1d 04 43 3f
       -0.42549032 -0.337045 -0.016939495 0.7617815
0002a0 dc a4 0c 3f 0a 62 5e bf d7 47 59 bf 02 bb 2a 3f
       0.54939055 -0.86868346 -0.84875244 0.666916
0002b0 03 b0 24 be 9d 2e af bd a3 ad ac be 62 43 55 3d
       -0.16082768 -0.08553813 -0.33726224 0.052066214
0002c0 46 8b d5 3d 73 61 aa 3f 46 1b ae be 11 96 8c be
       0.10426955 1.3310989 -0.34005183 -0.27458242
0002d0 d3 0c 56 bf cf a6 1d bd 88 05 aa be d2 3c 19 bf
       -0.8361332 -0.03848916 -0.33207345 -0.5985843
0002e0 f3 73 b2 be d2 5e 1a bf 37 31 b5 3e be cf 46 be
       -0.34854087 -0.60300934 0.3538911 -0.19415185
0002f0 d7 7f f6 be 90 85 b7 be 06 6f a6 3e a8 ff e6 3e
       -0.4814441 -0.35844088 0.3250658 0.45116925
000300 07 0d 86 3e eb 3e dc bd 19 b4 0a 3f df 22 6e bf
       0.26181814 -0.10754188 0.5418106 -0.9302196
000310 60 d9 36 3f 78 fe 82 3e ad 57 3d bf c9 e6 f6 3e
       0.7142544 0.2558477 -0.7396191 0.4822295
000320 78 1a 95 3e 34 1c a5 be 4a 01 ae be ba be 11 be
       0.29121757 -0.3224808 -0.33985358 -0.14232913
000330 16 41 a4 be 06 a9 77 be 4c 8c ab bf f0 fc 55 be
       -0.32080907 -0.24185571 -1.340219 -0.20897269
000340 41 bc d6 be 1c ea ca bd 61 7a 08 bf 10 6f e8 3d
       -0.419405 -0.09907934 -0.53311735 0.113493085
000350 aa 8b 36 bf 2d 72 c0 bf 2e 76 b2 bc 11 16 1a bf
       -0.7130686 -1.5034844 -0.021784868 -0.6018992
000360 0a 8f 97 3d f7 67 b2 bd 99 0a be be 93 e8 b2 be
       0.074003294 -0.08711236 -0.3711746 -0.34943065
000370 84 ed 58 3d 62 9e 21 be eb 6d 3a bf aa 01 19 3f
       0.052960888 -0.15783074 -0.7282397 0.59768164
000380 65 47 31 3f 7c f4 9d 3c 7f 39 0e be bd f5 e6 3d
       0.69249564 0.019281618 -0.1388912 0.112773396
000390 3d 9d e2 be 46 c7 41 bf 41 1d 35 3e 82 e0 41 3e
       -0.44260588 -0.7569469 0.1768694 0.18933299
0003a0 63 66 bc bd 4c b7 f4 3e 90 41 81 3e e9 a4 8b 3e
       -0.09199216 0.47796094 0.25245333 0.27274254
0003b0 02 62 3f 3d ac 41 d7 3e bf 1f d1 3e 63 c7 c8 be
       0.046724327 0.4204229 0.40844533 -0.3921462
0003c0 18 df b2 bf c7 48 28 3f d8 f2 ab 3f 27 4a 84 bf
       -1.3974333 0.6573605 1.3433485 -1.033513
0003d0 5c 60 f7 3d 4d f2 44 bf 82 9e b8 be 6c e0 cc bd
       0.12078926 -0.7693222 -0.36058432 -0.100037426
0003e0 e8 a6 05 bf f2 e7 0e 3e c1 0b e9 3e c2 18 12 3e
       -0.52207804 0.13955668 0.4551678 0.14267257
0003f0 ea e1 06 3e 6d f1 76 bf 89 83 8c 3e f9 e7 42 3f
       0.13172117 -0.96462137 0.27444103 0.7613521

_rnn.weight_hh_l0_reverse f4 [96, 32]
000000 7e 22 a0 bf 43 59 d7 bd e4 3e d4 3e 7c 11 22 be
       -1.2510526 -0.10515072 0.41454232 -0.15826982
000010 63 ac 18 bd 9c ff 86 3d f6 bb 96 3e 87 d8 00 bf
       -0.037273776 0.06591722 0.29440278 -0.50330395
000020 4b c0 f8 3e c2 50 f3 be fb 1d 01 bf 24 90 27 3e
       0.48584208 -0.4752255 -0.5043637 0.16363579
000030 ee 2b 3e bc 41 8f 66 3f bb 1c 10 3f c7 fe 68 be
       -0.011607153 0.9006234 0.5629384 -0.2275344
000040 90 cc 0e be 31 ba 00 bf 45 c7 08 3f 2d 6e ea bd
       -0.13945222 -0.50284106 0.5342906 -0.114467956
000050 0c 6e 12 bf d2 3c ba bf 15 ec 88 3f 7d 9f 6f 3d
       -0.5719917 -1.4549811 1.0697047 0.05850171
000060 a0 d1 14 be a2 ee 26 3f 4e 20 37 3f 24 af a1 3e
       -0.1453309 0.65207875 0.7153367 0.31578934
000070 e0 46 20 be f4 85 64 3f 4f 93 61 bf ad 0c 4f be
       -0.15652037 0.89266896 -0.881154 -0.20219679
000080 b0 3d 1a 3e 74 ed 2a 3c ff 7d 81 bf ac 82 56 3f
       0.15062594 0.01043259 -1.0116576 0.8379314
000090 b4 c2 fe 3e 93 e2 c1 be 98 2a 40 be 79 5d 08 bc
       0.49757922 -0.37868175 -0.18766248 -0.008323067
0000a0 00 35 88 bc 85 04 0d be e7 d8 ea 3d ce 22 50 bf
       -0.016626835 -0.13771255 0.11467152 -0.8130311
0000b0 ee d0 c8 3f 23 44 b6 3e 99 f5 96 3d 56 7f 6d 3e
       1.568876 0.3559886 0.07371063 0.23193106
0000c0 e9 5d b5 be dd 46 ea 3e 72 89 fd 3d 48 48 9e 3c
       -0.3542321 0.4575719 0.12379731 0.019321576
0000d0 73 02 42 3f 66 29 de bb 29 35 8d bf 7e ab 28 bf
       0.7578499 -0.0067798374 -1.1031848 -0.65886676
0000e0 a1 85 82 3e 0b 00 93 3e 14 81 a0 3d ca 2d f2 3e
       0.25492576 0.2871097 0.0783712 0.4730056
0000f0 3a ba 17 bc 69 91 18 be 1b b5 e7 3e d2 88 60 3e
       -0.0092607085 -0.1489922 0.4525536 0.21927193
000100 eb 59 68 bf 98 2a 68 3e 4d bf 12 bf 93 e8 21 3f
       -0.90762204 0.22672498 -0.5732315 0.63245505
000110 db 81 04 3f 2b 06 7e bf 18 90 09 bf b2 1f 83 3e
       0.51760644 -0.9922816 -0.53735495 0.2561012
000120 c0 b2 70 b9 5e 3c 3b 3f d0 cc c1 bf 6a 2c 87 bf
       -0.00022954773 0.7313899 -1.5140629 -1.0560429
000130 0d 25 23 3f dd 96 7e 3e cd 39 75 bd 58 d9 34 3e
       0.6372841 0.24862237 -0.059869576 0.17661035
000140 a9 11 8d 3e 10 d0 48 be 6e f2 2d be 61 f9 41 3e
       0.27552536 -0.1961062 -0.16987011 0.18942787
000150 2d ab 38 bf 2f 3e 51 bb 4f 97 d6 3e 5d b5 30 be
       -0.72136194 -0.0031927933 0.41912314 -0.17256685
000160 95 cc 00 bf a3 e3 90 3f 7b b3 9b 3e 8a bb 4e 3f
       -0.5031217 1.1319469 0.3041037 0.8075491
000170 5f 5d 32 be ad cd 12 be c0 71 d0 be 42 e5 a1 3e
       -0.17418431 -0.14336272 -0.40711784 0.31620222
000180 a0 91 3e 3e 92 51 bd be d8 f4 66 3e 9d 03 d2 be
       0.18610239 -0.36976296 0.22554338 -0.41018382
000190 45 c9 9a 3d 60 0a cc 3d fd 20 50 bf eb ce 90 bf
       0.0755792 0.099629164 -0.81300336 -1.1313146
0001a0 48 ad 77 be 63 1d 65 3f 9b 64 2b bf 08 2c 6c 3f
       -0.24187195 0.89497966 -0.66950387 0.92254686
0001b0 48 c9 04 be 90 75 ce 3e 57 e6 a0 3e 89 45 2d bf
       -0.12967408 0.40324068 0.31425735 -0.6768423
0001c0 73 ed f1 3e 5d 14 fc 3e a1 e4 41 bf b9 f9 f8 be
       0.47251472 0.49234286 -0.75739485 -0.48628023
0001d0 6c 25 7c 3d 4d 19 04 bf 90 4e 66 be d7 08 ad bf
       0.061559126 -0.51601106 -0.22490907 -1.3518323
0001e0 7a 56 60 3e 83 ae 0c 3f b1 5c a4 bc 57 99 88 3e
       0.21907988 0.54953784 -0.02006373 0.2667949
0001f0 6b 9b 92 bf aa f3 2b 3f 23 a6 58 be 8f bc c6 3e
       -1.145368 0.67168677 -0.21157126 0.38815734
000200 91 97 c6 be 56 a3 a3 3f 5a 6f 14 bf 3c a2 af bf
       -0.3878751 1.2784221 -0.5798241 -1.3721385
000210 3b 56 2f bc 0b 65 a1 3d a4 0b ca bf 69 5d 40 3f
       -0.010701711 0.078806005 -1.5784802 0.7514253
000220 04 49 13 bf e0 87 1b 3f 4e 13 08 3e 71 ca 36 bd
       -0.5753329 0.60754204 0.13288614 -0.044626657
000230 61 9a 10 3f 13 c1 8a 3c 1f 8e 9f be 06 f8 93 3e
       0.56485564 0.016937768 -0.31163117 0.28900164
000240 61 d0 ba 3e af 8d 4b 3f d1 44 e4 be 4a 99 5d bf
       0.36487105 0.79513067 -0.44583753 -0.86562026
000250 7b d9 d9 be 2b 38 6d be 87 d5 79 bf d3 13 83 bf
       -0.42548737 -0.23165958 -0.9759144 -1.0240425
000260 7b bb 8c 3d 8b 15 43 be 7c 75 ea 3e 04 5a 00 bf
       0.068716966 -0.19051187 0.45792758 -0.5013735
000270 c2 7d 18 bf 55 13 db be e9 05 a7 be fc 5f fc 3d
       -0.5956689 -0.42788187 -0.32621697 0.12322995
000280 57 78 f8 be 7f 44 4e bf ec 37 6d 3f 28 f6 ab bf
       -0.48529312 -0.80573267 0.92663455 -1.3434496
000290 3d 98 b9 3e 49 c6 7d be da 40 07 3f 26 c2 00 3e
       0.3624896 -0.24782671 0.5283333 0.12574062
0002a0 43 53 cb 3e 51 4f e1 3d 46 9a 1c be e8 83 92 3e
       0.3971196 0.110014565 -0.15293226 0.2861626
0002b0 21 2e 70 bf 82 01 6b 3e be e1 6a bf c7 95 f5 be
       -0.9382039 0.22949794 -0.91750705 -0.47965834
0002c0 d5 ab b7 bf eb 4a 17 3f 3b 5c 64 3f d1 d9 1b bf
       -1.4349314 0.5909869 0.8920323 -0.60879236
0002d0 2a 7b 60 bf 1c 22 2d 3f 70 c7 0c bf ba c2 83 3f
       -0.87687933 0.6763017 -0.5499182 1.0293801
0002e0 19 57 47 bf a1 7c 1e bf 51 81 cb 3e 8b d2 1d 3e
       -0.77867275 -0.6190892 0.39747098 0.15412347
0002f0 5c fa e9 be a1 40 4e bc e3 a1 4f bf 90 76 b9 bf
       -0.45698822 -0.012588651 -0.81106395 -1.4489307
000300 6d e5 43 be ff a2 a0 3e 90 bd 08 3f 04 76 77 3f
       -0.19130488 0.31374356 0.5341425 0.9666445
000310 08 53 cc 3e 54 96 af 3e dd 71 97 3e 8d b2 15 be
       0.39907098 0.3429438 0.29579058 -0.14618893
000320 1b fd 38 bd ac 00 80 3f f4 7f d6 bd 77 43 74 3e
       -0.045163255 1.0000205 -0.10473624 0.23853861
000330 39 ea 06 3f 02 99 e5 be 1b bc 80 bd d1 fd 93 3e
       0.52701145 -0.44843298 -0.06285878 0.28904584
000340 be 45 46 bf fe ff 9f be 19 50 39 bc fe 3a 38 bf
       -0.7745017 -0.31249994 -0.011310601 -0.71965015
000350 f1 61 bd be 96 dc 1a bf 25 8f 2f bf 38 85 0f bf
       -0.36988786 -0.6049284 -0.68577796 -0.5606265
000360 ae 24 2b 3f 40 ae cc 3f 4f 72 6d be 89 60 f9 be
       0.66852844 1.5990677 -0.23188137 -0.48706463
000370 9e 85 b4 3e a7 46 57 3f bc e4 ac 3d 29 f5 d4 3b
       0.35258192 0.8409218 0.08442065 0.006498952
000380 1a 38 fc bd 7d 87 d9 be f4 64 f9 be cd 77 e8 bd
       -0.12315388 -0.42486182 -0.48709834 -0.11350975
000390 b8 bd 15 3f cd 5b ae 3f dc 85 4f bf 4f f8 20 bf
       0.5849261 1.3621765 -0.8106363 -0.6287889
0003a0 0d fe 08 3f 68 41 3f 3f c4 3e 56 3f 4a 3b 30 bf
       0.5351265 0.74709177 0.8368952 -0.6884047
0003b0 8b d9 9e 3f a5 b4 15 3e 61 ef 25 3f 23 aa 08 3f
       1.2410139 0.14619692 0.6481839 0.5338461
0003c0 ac 43 d2 be 62 98 e5 3e 7b 24 0e 3e 3e e8 d9 be
       -0.41067255 0.4484282 0.13881104 -0.4256
0003d0 41 6a 23 be 80 f1 d3 be f0 cd 09 bf 6f fe 74 3c
       -0.15958501 -0.41395187 -0.5382986 0.01495324
0003e0 51 5a 35 3f 0b 28 89 3e 9e da d0 3d 2d 25 c9 3e
       0.70840937 0.26788363 0.10197948 0.39286175
0003f0 cc fd d8 3e 8b 88 b2 3e a0 e8 0c bf 83 62 44 bf
       0.42381132 0.348698 -0.5504246 -0.76712817

_rnn.bias_ih_l0_reverse f4 [96]
000000 52 1b 92 be cb 59 1a 3f 4c f7 0b 3f 1a 07 05 be
       -0.2853647 0.60293263 0.5467422 -0.1299099
000010 d1 6b 15 3f 68 5d 0c 3d 78 cc 9e 3e 91 12 b7 be
       0.5836764 0.034268767 0.31015372 -0.35756353
000020 aa 89 b1 3e d8 91 54 3f 75 b4 be be 0c d6 2f be
       0.34675342 0.8303504 -0.37247053 -0.17171496
000030 ab a7 bc be 89 42 02 bf cf b3 38 3f 50 da a3 bc
       -0.3684667 -0.50882775 0.72149366 -0.02000156
000040 f9 f9 4e 3e bb b4 5b 3f d1 8c 97 3e f9 ec 52 3f
       0.20212545 0.8582265 0.29599622 0.8239284
000050 28 97 9d 3d 7c 0e 01 bf 28 6f 8b 3c d0 4f ec 3d
       0.076948464 -0.50412726 0.017020777 0.115386605
000060 ab ed 97 be d9 2c 11 3f d8 c8 17 bd 9b cc 87 3e
       -0.29673514 0.5670906 -0.037056774 0.2652329
000070 f3 a7 17 3e 25 2f 23 3f d2 a6 eb be e1 e4 b7 be
       0.14810161 0.6374381 -0.4602571 -0.35916808
000080 48 d1 17 bf 72 25 c4 bf c7 95 3e bf 7a cc 7c bf
       -0.5930371 -1.5323927 -0.7444729 -0.98749506
000090 78 49 91 bf b3 b3 01 bf 2d 8b 50 bf 6d 13 8c bf
       -1.1350546 -0.50664824 -0.81462365 -1.0943428
0000a0 1c da 77 bf d5 67 c4 be a5 32 6c bf 9b 31 d2 3d
       -0.96817183 -0.38360468 -0.9226478 0.10263368
0000b0 f3 cf b6 bf 5b b6 72 bf a9 66 01 bf c6 5c 0b bf
       -1.4282211 -0.948095 -0.5054727 -0.54438436
0000c0 b2 93 02 bf f2 9b 85 bf e2 cc 7b bf 7a 0d 6b bf
       -0.51006615 -1.0438216 -0.983595 -0.9181744
0000d0 36 b6 00 be 52 b3 88 bf b1 79 0e bf 53 a1 b8 be
       -0.12569508 -1.0679724 -0.55654436 -0.3606058
0000e0 36 d5 02 bf 7d eb 79 bf 66 ff 6c bf d5 8b 3a bf
       -0.51106584 -0.9762495 -0.9257721 -0.72869617
0000f0 ee 87 c3 bd 18 ef 36 bf 18 10 8f bf b4 eb 11 bf
       -0.09547411 -0.7145858 -1.1176786 -0.5700028
000100 e9 fa d9 bc 29 cc f5 be 93 ed 81 3e c6 97 11 bf
       -0.026608901 -0.48007324 0.25376567 -0.5687221
000110 e3 67 c5 be 19 dc 03 bf 74 1a e3 3e b0 44 b8 bd
       -0.38555822 -0.5150772 0.4435612 -0.08997476
000120 7b fe a7 be 58 05 aa 3d c0 19 db bd e7 c4 a4 3d
       -0.3281134 0.083018005 -0.10698271 0.08045369
000130 2c 2e 9f bd 93 cf f0 be 05 73 82 be f3 c8 99 be
       -0.077724785 -0.47033367 -0.25478378 -0.30036125
000140 8b 8b 21 bd be 70 8d be 50 70 8f be 31 5c 91 be
       -0.03943972 -0.27625078 -0.28015375 -0.2839065
000150 64 77 a7 3e fa b9 4b be ca 1f 34 be e8 4a b5 3e
       0.32708275 -0.19895163 -0.17590252 0.3540871
000160 f0 06 37 bf fa 90 0f 3e 27 71 a5 3e 73 95 69 be
       -0.7149496 0.14020148 0.3231289 -0.22810917
000170 a3 01 a3 3e fa 95 2c bf 99 d8 d5 be 28 55 2a 3f
       0.31837186 -0.67416346 -0.41766813 0.6653619

_rnn.bias_hh_l0_reverse f4 [96]
000000 f8 35 77 be 82 2a f5 3e fd cb ac 3e 95 6b a5 bd
       -0.24141681 0.47883993 0.3374938 -0.0807716
000010 03 b7 e7 3e 6b 56 1a 3e 38 00 d7 3e 8e d2 9e be
       0.45256814 0.15072028 0.41992354 -0.31020015
000020 27 ef 81 3e 14 58 2d 3f d4 d5 0e bf 7f de 91 be
       0.2537777 0.6771252 -0.55795026 -0.28490064
000030 9c c8 b6 be d8 96 24 bf cc 6a 37 3f e9 11 0e 3e
       -0.35699928 -0.6429267 0.71647334 0.1387402
000040 a7 a2 5c 3e 07 6b 25 3f 6f 33 a8 3e 10 2d 7a 3f
       0.21546422 0.64616436 0.3285174 0.9772501
000050 34 7f 95 bc 6d 20 94 be ac 49 65 3e 66 a9 a3 3d
       -0.018249132 -0.2893099 0.22391385 0.079912946
000060 54 86 4e 3b bd a9 49 3f 59 36 9b 3c 9c ed 58 3e
       0.0031513171 0.78774625 0.018946813 0.21184391
000070 0f 7a 99 3d 6a 9e 5f 3f c8 74 e7 be cb 44 be be
       0.07493984 0.87351096 -0.45206285 -0.3716186
000080 18 ec e9 be 24 eb bc bf b9 25 86 bf 4d 65 93 bf
       -0.45687938 -1.4759259 -1.0480262 -1.151529
000090 49 80 86 bf 6f 57 3a bf bb e1 6a bf 9c 73 8b bf
       -1.05079 -0.72789663 -0.9175069 -1.0894656
0000a0 41 34 8d bf d8 26 aa be 7e 52 90 bf 0a b1 bf bd
       -1.1031572 -0.3323276 -1.1275175 -0.093599394
0000b0 e9 04 a0 bf 74 24 3a bf 68 9d d9 be c8 b4 2b bf
       -1.2501498 -0.72711873 -0.42502904 -0.67072725
0000c0 21 5f e6 be c1 9e a7 bf 4b b7 8a bf ff 35 7a bf
       -0.44994453 -1.3095323 -1.0837187 -0.9773864
0000d0 70 e6 c1 bd e6 fc 95 bf d7 83 38 bf b7 b4 d6 be
       -0.094677806 -1.1717803 -0.7207617 -0.4193475
0000e0 08 10 fc be cd 35 61 bf 1c 40 7a bf c9 92 6e bf
       -0.4923098 -0.8797272 -0.97754073 -0.93192726
0000f0 f3 de 0e 3d 8a e6 23 bf 8c 9c 90 bf f5 07 c7 be
       0.03488059 -0.6402365 -1.1297774 -0.38873258
000100 30 7b a5 3e e2 7f 07 bf d9 d2 26 3e 1b 31 ae be
       0.32320547 -0.5292951 0.1629137 -0.3402184
000110 44 2b 4e bf ff 00 52 3e 33 3d 63 bd 9a 60 c5 3d
       -0.8053477 0.20508192 -0.055478286 0.09637566
000120 f3 01 6e be a5 53 c6 be d4 7d 6c 3d 8c 09 93 bc
       -0.23242931 -0.3873569 0.057737187 -0.017948888
000130 cf 71 bc 3e d4 ad fe be 25 ed 83 bd 4f 66 fb be
       0.3680558 -0.49741995 -0.06441716 -0.49101493
000140 7e 0d bf 3e fd a8 59 be 86 a5 5f bd 2b 3f d8 be
       0.3731498 -0.2125587 -0.054601215 -0.42235693
000150 33 89 04 bd b5 0f b7 be df 61 50 bf 08 e4 61 3e
       -0.032357406 -0.3575417 -0.8139934 0.22059643
000160 8b 22 fb be 8c 50 af 3e f4 f6 1c 3d 7c 1e cb be
       -0.49049792 0.3424114 0.03832145 -0.39671695
000170 bd 62 e0 3d 4d f0 4e bf 15 8e 38 bd a2 e6 8d 3e
       0.10956333 -0.8083542 -0.045057375 0.2771502
