Onproduct_bigru.pt (torch, 204767 bytes, 27 tensors)

_charemb.weight f4 [184, 16]
000000 51 9b d2 3f b3 7b 81 3f 18 a8 9e 3f 87 a5 ff bf
       1.6453649 1.0115875 1.2395048 -1.997239
000010 f7 b1 a1 3f e7 08 55 bf 0d 63 f3 bf 48 ba 51 3d
       1.2632436 -0.8321671 -1.9014603 0.051203042
000020 6a 3e 1c 3f cb 32 8f bd 87 98 d6 bf 85 15 0a 3e
       0.61032736 -0.0699211 -1.6765298 0.13484772
000030 13 33 0e 3f d4 c1 f2 3e 11 1b 5e be 0c b3 e1 bd
       0.55546683 0.47413504 -0.21690013 -0.110204786
000040 c8 e6 8d 3f 92 9d da 3f 29 af 4a 3f 23 22 9e 3f
       1.1086054 1.7079337 0.79173523 1.2354168
000050 b1 f3 13 3e 0f b0 00 c0 53 40 50 bf fa 74 82 bf
       0.1444843 -2.0107458 -0.8134815 -1.0191948
000060 c2 f1 a5 3f 9c 50 d7 be 7d 45 94 bf 78 c5 bb 3f
       1.2964404 -0.42053688 -1.1583706 1.4669638
000070 98 8c a8 be fa c4 e5 3e f4 a7 c1 3f 17 86 cc bf
       -0.32919765 0.44876844 1.512938 -1.5978421
000080 8e 70 1d 3e f0 c2 33 c0 22 99 6a bf 3c 83 c5 bf
       0.15374967 -2.808773 -0.9163991 -1.5430675
000090 75 4f db 3f 0e ea 75 bf 00 8c ec 3f 2e cd ca 3f
       1.7133623 -0.96060264 1.8480225 1.5843866
0000a0 9d 60 d5 be cf 76 bd bf cb 57 39 3f b3 d1 80 c0
       -0.41675273 -1.4801883 0.72399586 -4.025598
0000b0 5a 8b c7 3f 38 15 14 40 eb 0c f9 be 4b 88 ce bf
       1.5589402 2.313795 -0.48642668 -1.6135343
0000c0 39 1b eb 3d 28 4c de bf bb ed 5d 3f ec d7 87 3f
       0.11479802 -1.7366991 0.8669087 1.0612769
0000d0 12 05 fe 3d 47 39 77 bf 57 67 a5 bf 3d ab 77 bf
       0.12403311 -0.96571773 -1.2922162 -0.96745664
0000e0 c1 97 c7 3f f6 d0 af 3e a1 96 15 bf 3c 1c a7 bf
       1.5593187 0.34339112 -0.58432966 -1.3055491
0000f0 62 d6 0b 3f 14 f8 6a 3f 49 92 41 bf 59 58 83 3f
       0.54624 0.9178479 -0.7561384 1.0261337
000100 8e 38 82 bf 88 8a f1 be a0 d1 c2 3d cd 0d 0c 3f
       -1.0173509 -0.47176003 0.09512639 0.5470856
000110 78 6d e4 3e 22 24 a6 be 58 94 0b 40 f6 a9 ee 3f
       0.44614768 -0.32449442 2.1809292 1.8645618
000120 ab 56 26 3f 30 24 cd bf d2 68 90 3f df 5c 07 c0
       0.64975995 -1.6026669 1.1281989 -2.1150434
000130 48 53 50 3f 36 77 ac 3d a3 ba 7e bf f5 66 23 3f
       0.8137708 0.08421175 -0.99503535 0.63828975
000140 a5 34 a2 3d 54 7c 48 40 1b 40 55 40 9e 82 c5 be
       0.079201974 3.1325884 3.3320377 -0.38576216
000150 10 c3 5a 3f 25 ac 37 bf 66 d2 01 c0 21 5d 87 bf
       0.8545389 -0.71747047 -2.0284667 -1.0575296
000160 03 2b 97 3f 46 22 ce 3f 36 e8 cd bf 1c e7 93 3f
       1.1810001 1.610421 -1.608649 1.1554904
000170 be 95 9b 3f 62 05 10 40 ec ae d0 be a0 ec 7e bf
       1.2155073 2.2503285 -0.40758455 -0.9957981
000180 c9 bd 26 bf 49 cc 1a c0 4d 2b 3a 3d f8 3a ef bf
       -0.6513334 -2.4187186 0.04545145 -1.8689871
000190 66 38 36 3f 8f 94 e1 bf 7c a9 3a bf 05 a5 fb 3e
       0.7117981 -1.7623461 -0.7291486 0.49149337
0001a0 32 01 93 3f 9c f2 a7 be 88 20 22 be ac 46 88 bf
       1.148474 -0.32802284 -0.15832722 -1.0646567
0001b0 0d 5d 0f 3d 92 4f b0 3f a5 c4 55 3f 96 c4 b4 be
       0.03500085 1.3774283 0.8350318 -0.35306233
0001c0 3f fe d9 3f 75 62 8b 3f 4c f3 9a 3f e5 4e 37 3e
       1.7030715 1.0889422 1.2105498 0.1790119
0001d0 6a ab 53 3f 6a 81 a1 bd 5a 98 12 bf 12 4f d4 be
       0.8268343 -0.07886012 -0.5726372 -0.41466576
0001e0 e2 5f dc 3f 4b 4f 47 bf 57 e1 ba bf 92 25 0d bf
       1.7216761 -0.77855366 -1.4600018 -0.5513545
0001f0 fd 0f 12 be 40 f6 00 40 e9 fa 44 bf ae 47 98 3e
       -0.14263912 2.01503 -0.7694536 0.29742187
000200 a8 3f 83 3f 15 5f 29 3f 2c cb f4 3f 68 73 cd bf
       1.0253801 0.6616071 1.9124503 -1.6050844
000210 f5 8f 83 3f 50 26 f3 bf f3 f1 05 c0 14 fa d8 be
       1.0278307 -1.8996067 -2.0928924 -0.42378294
000220 d2 f9 d6 3f 2d d8 8b bf 75 2a 81 3e 6e 41 2b c0
       1.6794989 -1.0925347 0.25227705 -2.6758685
000230 89 fe d8 3e a4 3c a6 bd e0 e8 bc bf 18 57 09 3f
       0.42381695 -0.08117035 -1.4758568 0.5364852
000240 35 46 bc 3f 45 d7 95 3f e1 f5 5c 3f 01 4a e1 3e
       1.4708925 1.170632 0.8631268 0.44001773
000250 2e 51 da 3e c5 bb 59 3e 8e 1d 34 c0 b6 ba 63 3f
       0.4264006 0.21263035 -2.8143039 0.88956773
000260 e0 f5 51 be 7a ba 51 3f 27 2d 20 c0 c1 d2 87 3e
       -0.2050395 0.81925166 -2.5027559 0.2652798
000270 37 73 f1 3e eb 79 98 3f 57 fd 16 40 41 6b a0 bf
       0.47158214 1.1912206 2.3592126 -1.2532731
000280 f4 24 69 3f 30 11 0b be fe b7 53 bf 0f 12 b0 bf
       0.9107201 -0.13580775 -0.82702625 -1.3755511
000290 14 6e d5 3e 7d 9a ef bf dc 5e 82 bc e0 29 4e 3e
       0.41685545 -1.8719021 -0.015914373 0.20133162
0002a0 12 28 81 bf fa a3 2f 3e b3 27 2f 3f 3b 09 bc bf
       -1.0090353 0.17152396 0.6841995 -1.4690317
0002b0 79 b3 2e be 61 04 a3 bd 58 24 45 bf 0f f0 58 bf
       -0.17060651 -0.079598196 -0.7700858 -0.847413
0002c0 40 d9 ec be a7 62 ad bf 92 81 9b 3f d5 f3 68 3f
       -0.462595 -1.3545731 1.2148917 0.9099706
0002d0 5a 83 76 bf de 60 d8 3e 83 08 34 c0 8c 68 95 bd
       -0.96294177 0.42261404 -2.8130195 -0.07295331
0002e0 e0 6d 1c 40 36 5a 80 bf 39 f4 86 bf 36 51 91 3f
       2.4442062 -1.002753 -1.0543281 1.1352909
0002f0 4b 49 2d bf ce c7 9d be e9 f0 9e be 76 a2 ab bf
       -0.6768996 -0.308165 -0.31043175 -1.3408954
000300 4f 22 e2 3f 61 29 1f c0 f1 56 c9 be be c6 2f 40
       1.766672 -2.4869006 -0.39324144 2.7465053
000310 78 04 93 bf 15 ad de be f3 b2 05 c0 e6 4d a8 3e
       -1.1485739 -0.43491426 -2.0890472 0.32871932
000320 87 7e 5b 3b d7 d8 2f bf f6 2a 5d bf b7 92 13 c0
       0.0033492164 -0.68690246 -0.8639368 -2.3058298
000330 fb 04 4c 3f de 75 0e 40 19 75 c1 bf 8e 6c 39 3f
       0.796951 2.225944 -1.511386 0.72431266
000340 5e 15 d0 3f e4 a8 dc bf 93 73 df bf 90 fe e7 3e
       1.6256521 -1.7239041 -1.7457145 0.45311403
000350 24 1d 15 40 8b 7c b8 bf de 55 4e 3f f1 8a 4d bf
       2.3299036 -1.4413007 0.8059977 -0.8029013
000360 bc c5 88 3e f5 22 c7 bf 34 b6 39 3c 57 4a 73 be
       0.2671336 -1.5557543 0.0113349445 -0.23758827
000370 4d 53 3e 3f 52 e4 3a 3f 13 e5 54 c0 35 7b 15 c0
       0.74345857 0.7300464 -3.3264816 -2.335645
000380 ca e5 c4 3f b5 3b d2 3f 26 35 c3 3e a8 a2 03 3f
       1.5382626 1.6424471 0.38126487 0.5142007
000390 b0 00 d9 3f 46 ee b4 bf db 5b 0c 3f cd 1c 71 c0
       1.6953335 -1.4135215 0.5482766 -3.7673829
0003a0 99 2b 64 3d 74 89 4e 3f 25 a9 13 3f 32 3f ff bc
       0.05570564 0.80678487 0.5767997 -0.031158064
0003b0 4d b1 e6 3f 3b d2 75 3f 6f e1 8e 3e 16 96 c2 bf
       1.8022858 0.9602391 0.27906367 -1.5202053
0003c0 76 c3 06 c0 fa fd b4 bf 8c 03 ac bf 4c 40 9b 3e
       -2.10568 -1.4140007 -1.3438582 0.30322492
0003d0 74 af 07 40 3e dc 2f bd 8d a1 00 be f7 70 db 3f
       2.1200838 -0.04293465 -0.12561627 1.7143849
0003e0 91 4c 81 be 84 53 38 bf 5e f6 d1 bf 2a 6b 83 bf
       -0.25253728 -0.72002435 -1.640331 -1.0267079
0003f0 25 74 d4 3f 3a 33 ac 3e 3c c5 07 c0 cf 53 f3 bf
       1.6597944 0.33632833 -2.1214132 -1.9009951

_rnn.weight_ih_l0 f4 [96, 16]
000000 14 71 1c 3e 2a 44 27 3e 08 a0 ac be fd 1b 18 3e
       0.15277511 0.16334596 -0.33715844 0.14854427
000010 1c cf 55 be 53 29 d0 3e 0b 24 84 3d a8 5c 06 bf
       -0.20879787 0.40656528 0.06452187 -0.5248513
000020 08 b8 00 3f 0c 3b 27 be be f8 27 3f de 41 1a bf
       0.5028081 -0.16331118 0.65613925 -0.60256755
000030 43 38 c9 3e 4f 01 d6 3e 28 20 5e 3e 07 d4 f5 be
       0.39300737 0.41797873 0.21691954 -0.48013327
000040 35 ca 84 bf 80 5f b6 3b 44 87 31 3d c8 93 34 bf
       -1.0374209 0.0055655837 0.04334189 -0.70537996
000050 4f fc c2 3e 3a f9 6f 3f ee 3f ac 3f 7f 2a 85 be
       0.3808312 0.93739665 1.345701 -0.26008984
000060 df a6 60 3f 77 0f b9 be 10 2c 9e 3e 94 12 16 bf
       0.87754625 -0.3614461 0.30892992 -0.586221
000070 81 2e 3d be 9e ce 07 bd 05 21 59 3e 88 ca c7 3d
       -0.18474771 -0.03315603 0.21204002 0.09755427
000080 a2 ee df 3e 0c 3e cd 3c 00 8d 3f bf ca 5a 0e bd
       0.4373675 0.025054 -0.74824524 -0.034754552
000090 d6 76 c7 bd 10 ce 1e 3f a1 52 36 3f 1b b5 37 3d
       -0.09739463 0.62033176 0.7121983 0.04485045
0000a0 b3 c5 ba 3e b3 dd 21 3f 41 9c 50 3f ba cf b4 3c
       0.36478958 0.6322891 0.81488425 0.022071708
0000b0 92 c6 23 bf bb ab 16 3f 45 16 7e 3d 49 63 c2 3e
       -0.6397487 0.5885579 0.062032957 0.37966374
0000c0 7b 5e 0f 3e 66 95 af 3c 59 1d 51 be 9c 61 93 3e
       0.14000885 0.021433543 -0.20421351 0.28785408
0000d0 37 f1 0c be 5a 16 1a 3f 27 8c 8f 3e bf 05 d9 3d
       -0.13763891 0.60190356 0.28036615 0.10596799
0000e0 8c e4 9d be 9a c7 62 3e a2 16 70 bd 11 f4 01 bf
       -0.3083843 0.22146454 -0.058615334 -0.5076304
0000f0 dd 5f 3d be c2 ee 18 3e 18 32 0e bf d3 9d 7a bc
       -0.184936 0.14934829 -0.55545187 -0.015296417
000100 aa 67 b4 3e f9 47 23 bf 10 3b b5 3f 39 9f cb be
       0.3523534 -0.63781697 1.415865 -0.39769915
000110 7a ad ae 3d a6 33 7b 3f 58 8e a1 3e c6 8f 34 be
       0.08529182 0.98125684 0.31553912 -0.1763297
000120 5d c6 00 bf 90 3a e3 3e e1 92 fe 3e 54 09 08 3f
       -0.5030268 0.44380617 0.49721435 0.53139234
000130 82 98 39 3f 64 95 43 3e 2d d5 a0 be 40 11 51 3e
       0.72498333 0.19099957 -0.3141264 0.20416737
000140 45 42 c2 bd 98 33 ff 3d 2a 38 ca bd f9 74 44 3e
       -0.09485296 0.124610126 -0.09873994 0.19185247
000150 bd 2e 47 3d 15 02 98 3e f1 e3 1f bc 88 b7 49 bf
       0.048628557 0.29689088 -0.009758935 -0.7879567
000160 31 e3 93 bf 2d c6 4d bf ff a0 18 3f e3 e3 9a 3e
       -1.1553708 -0.8038052 0.5962066 0.3025199
000170 c1 c0 79 3d 36 71 f9 3e 2b 3e 08 bb f6 5a 52 bc
       0.06097484 0.48719186 -0.0020789008 -0.01283907
000180 22 ae 8c bd 0a 1f 8a bd d3 ae a8 3e 45 37 68 3e
       -0.06869151 -0.067442015 0.3294588 0.22677334
000190 18 9a e9 3e 29 c2 2e 3e f5 a3 9c 3e 99 c1 a5 be
       0.45625377 0.17066254 0.3059384 -0.32374266
0001a0 93 b9 9c 3e e7 60 e1 ba 0a 1e cd be a8 ee 81 bd
       0.30610332 -0.0017195017 -0.4006198 -0.06344348
0001b0 f1 32 39 bf cf 91 35 be 54 88 13 3e cc 2e 2d bf
       -0.72343355 -0.17731403 0.14407474 -0.6764953
0001c0 11 33 13 bf 52 5d c0 be fe e6 24 bf 3d cc 51 3e
       -0.57499796 -0.37571198 -0.64414966 0.20488067
0001d0 7a 42 de bd dd 39 e1 3d e9 f9 04 3f 94 60 0a bf
       -0.10852523 0.10997365 0.5194383 -0.54053617
0001e0 ea 27 a5 be d8 94 4b 3e 18 05 f8 bc 90 cb e7 bd
       -0.32257015 0.19880998 -0.030275866 -0.11318123
0001f0 e4 0a 93 3e 3f cf 54 3e 44 60 d3 be 70 dd 26 bf
       0.28719246 0.20782183 -0.41284382 -0.65181637
000200 5c 7e 99 3e b0 0c 8c 3e fd 40 79 bf 7a 93 a3 3e
       0.29979217 0.2735343 -0.9736479 0.31948453
000210 42 5a 36 bf c9 97 16 3f 0b ec cc be fa 9c 20 be
       -0.7123147 0.58825356 -0.40023836 -0.15684882
000220 ad 2e 97 3e 93 b7 c1 3e b6 ff b6 be 83 01 5e 3e
       0.29527798 0.3783537 -0.35741967 0.21680264
000230 dd 86 b0 bd 94 50 d6 be 7c 89 5d be 87 1f 77 be
       -0.08619473 -0.4185835 -0.21634477 -0.2413312
000240 0d a9 8a 3e 9f d2 b6 bd 4a c4 e3 3e e2 f9 8a 3e
       0.270821 -0.089268915 0.44485694 0.2714377
000250 be a0 c5 bd 82 a5 0c be 72 a7 9c 3e 8a 58 2c be
       -0.096498 -0.13735011 0.305965 -0.1683065
000260 d5 8b 1b 3f 10 28 2e be 62 f6 4e be 5a 7b 1f bf
       0.6076024 -0.1700747 -0.20211175 -0.62297595
000270 4a ce 9c 3d 32 c6 da bd 1b 8e 38 bf c9 43 c4 3e
       0.07656534 -0.10682334 -0.72091836 0.38332966
000280 37 00 eb 3e 14 33 33 3e d9 84 0f be 29 32 04 3f
       0.458986 0.17499954 -0.14015521 0.5163904
000290 48 81 45 3d 10 e1 4e 3e f4 32 07 bf 4f 16 88 be
       0.048218995 0.20203042 -0.52812123 -0.2657952
0002a0 d4 83 b9 be 90 b7 c1 be 46 46 ae bd 11 05 09 3e
       -0.3623339 -0.3783536 -0.08509497 0.13380839
0002b0 ec 98 93 3e 62 83 51 bf 58 96 3e bf 59 3f 4e 3d
       0.28827608 -0.818411 -0.74448156 0.05035338
0002c0 d8 99 0e be b2 87 31 3f 17 36 c6 be c7 48 82 3e
       -0.13925874 0.6934768 -0.38713142 0.2544615
0002d0 8b f8 45 3f bd 53 c9 be 17 f2 81 3f d8 91 98 3e
       0.7733237 -0.393217 1.0152005 0.2979877
0002e0 c8 83 3a 3e 97 87 01 bf f8 a4 5e 3e 42 72 ba 3d
       0.18214333 -0.5059752 0.21742618 0.09103824
0002f0 c2 f6 93 bd 70 ae 8a be 0c e1 ce 3e 8a ef 83 be
       -0.072248 -0.2708621 0.40406072 -0.2576869
000300 d6 f3 28 bf 25 5e 05 3f b7 53 cd bd 63 8f 0b 3e
       -0.65997064 0.5209678 -0.10025733 0.13628916
000310 71 09 e9 be 57 46 84 be e1 40 31 3d 54 7b 7c 3f
       -0.45515016 -0.25834915 0.043274764 0.98625684
000320 26 b3 27 3f 7a 62 ae be ee 9f 2e bf 22 89 8d bd
       0.65507734 -0.34059507 -0.68212783 -0.06910922
000330 85 bd 63 bf 59 e2 c9 be 64 0a 5b 3e 7b 51 88 3e
       -0.8896106 -0.39430502 0.21390682 0.26624665
000340 a8 bb d6 3e 95 ca 58 3f f4 fd 79 bf b8 8b 02 3e
       0.41940045 0.84684116 -0.97653127 0.12748611
000350 21 ee e9 3e f1 5c f8 3e 17 84 ce 3e 9e 3c 78 bf
       0.4568949 0.4850841 0.40335152 -0.96967494
000360 80 2d 99 3d 4b 64 0e 3f 58 b8 f6 be fd 5d a3 3e
       0.074793816 0.55621785 -0.48187518 0.31907645
000370 e5 47 34 be 35 2f 03 bf 72 fd 51 be 7f d7 22 3f
       -0.1760555 -0.5124391 -0.20506838 0.6361007
000380 82 72 51 3e b9 25 06 3e b0 2f bc be 79 a2 14 3f
       0.20453838 0.13100328 -0.36755133 0.58060414
000390 32 fb 7b be 9d d7 ff 3e ae 32 d6 3e 84 df de 3d
       -0.24607542 0.49969187 0.4183554 0.10882476
0003a0 e0 ec 85 3e 1f eb 41 bd 7a 44 15 3f f8 1f 09 bf
       0.26157284 -0.04734337 0.5830761 -0.53564405
0003b0 ff e5 18 3f d6 fd 54 bc eb 2f 1d be 9b 4d a7 3c
       0.59725946 -0.012999972 -0.1535031 0.020422747
0003c0 c3 44 50 be e2 4b af bd 97 b7 4a 3d 8f b4 e3 3e
       -0.2033873 -0.085593954 0.04949149 0.44473693
0003d0 df ec 8d 3d f9 3f 06 bf fe eb 23 3f 66 0a 55 be
       0.06929945 -0.52441365 0.6403197 -0.20804748
0003e0 17 f7 8d be 32 a8 38 be 27 3d fa 3e 5c 24 85 3e
       -0.27727577 -0.18032911 0.4887478 0.26004303
0003f0 33 18 3a bd c6 4b f7 be b8 f9 d0 be d5 55 72 3d
       -0.045433234 -0.48299998 -0.4081552 0.059163887

_rnn.weight_hh_l0 f4 [96, 32]
000000 57 ab 48 bf b5 14 46 3a 09 19 e3 3b 83 d5 35 3e
       -0.78386444 0.0007556186 0.0069304747 0.1775723
000010 b0 8c 97 3e e1 0b e8 3e c7 5f 73 be a3 c8 d4 be
       0.29599524 0.45321563 -0.23767005 -0.41559324
000020 bd d3 f7 be af cd 0d bf 73 ed 83 bf ba 03 1d be
       -0.4840373 -0.55391973 -1.0306839 -0.15333453
000030 8c 54 10 be 4e fb 9e 3e 10 e8 4a be f7 99 82 3e
       -0.14094752 0.31051105 -0.19815087 0.2550809
000040 52 5b 11 3f 90 d5 80 3d da ef 95 3e 10 06 71 3b
       0.5677997 0.06290734 0.29284555 0.0036777295
000050 8c a8 32 be 39 b9 99 bd c3 e3 82 be 1b 0a 80 3f
       -0.17447108 -0.075060315 -0.25564393 1.0003084
000060 7b 65 16 bf e5 8d 62 3f 1d 33 22 3f fe 02 51 be
       -0.58748597 0.88497764 0.6335924 -0.20411298
000070 8b f9 9e be 1f 5b 58 bf 54 12 7d 3e 54 ad 63 3f
       -0.3104976 -0.8451404 0.24714023 0.8893635
000080 b4 8e a5 3e 48 25 ef 3e 65 d9 1e be 66 9c 9d be
       0.32335436 0.4670813 -0.15512617 -0.30783385
000090 26 f4 69 be 58 43 95 3f bf 66 51 be 6a d0 97 3d
       -0.22847041 1.1661177 -0.20449351 0.07412799
0000a0 69 0a 19 3d c2 3e 9b be 4b fc 06 3e 7f 43 12 3f
       0.037363444 -0.30321318 0.1318218 0.5713424
0000b0 5c 83 bc be fd e9 47 bf 96 5c 6d bf 75 b4 b2 be
       -0.3681897 -0.7809141 -0.927194 -0.34903303
0000c0 77 07 83 3e 63 3a 41 be fb 9d ac be 5d d2 a3 bd
       0.25591633 -0.18869929 -0.3371428 -0.07999108
0000d0 55 d7 2c bf 0b d1 6e be 94 7b 46 3e 47 79 91 bd
       -0.6751607 -0.23321931 0.19383079 -0.0710321
0000e0 d9 f4 5a be f3 80 0b 3f 52 bc f4 3e 8b 33 43 3e
       -0.21382464 0.54493636 0.47799927 0.19062631
0000f0 77 d7 17 bf 24 98 9c 3f 31 e1 3b 3f bc 26 0e bf
       -0.5931315 1.223393 0.7339049 -0.55527854
000100 58 b2 d0 be 6b 3b f9 3d d4 f8 dd 3e 00 3f 00 bf
       -0.40761065 0.12169536 0.43353903 -0.5009613
000110 b9 e2 a0 be 97 fb 29 bf 6d d3 01 bf 64 69 30 bf
       -0.31422976 -0.6639952 -0.50713235 -0.68910813
000120 1c b4 1a be b9 1d 36 3f a6 61 f7 3e 5b 64 6b 3e
       -0.15107769 0.71139103 0.48316687 0.22987501
000130 89 7e 47 be c9 c3 f4 3e cf 0f 12 3d 87 61 92 bc
       -0.19481863 0.47805622 0.035659607 -0.01786877
000140 5e b0 25 3f 1a 5d c8 3b 60 8f c4 3e e5 59 00 3e
       0.6472224 0.006114614 0.38390636 0.12534292
000150 ff 96 80 bf e9 5d 27 3f 35 62 58 3f 0d 59 71 3e
       -1.004608 0.6537767 0.8452485 0.23569126
000160 c3 01 80 3e cc a7 44 bf 9b f5 50 3e e1 1f 76 3f
       0.25001344 -0.7681854 0.20406191 0.96142393
000170 83 3e 67 3d de 87 9f be 26 1b ab be ce af 1e 3f
       0.0564561 -0.31158346 -0.3341915 0.61987007
000180 1b 07 33 bf a1 25 c6 3e 0d 02 5e bf b8 8a 94 3e
       -0.6993272 0.38700584 -0.8672188 0.29012084
000190 19 43 c2 3e 17 8b 32 bf af 0c 5b 3f a1 cf 16 bf
       0.37941816 -0.69743484 0.8556623 -0.58910567
0001a0 36 45 09 bf a4 9a 21 be cd 1e 07 3d a9 03 a7 bd
       -0.5362123 -0.15781647 0.03298836 -0.08154995
0001b0 aa bb 5b bf a3 06 37 3f 1e 80 91 be 9f e9 99 3e
       -0.8583323 0.714945 -0.28418058 0.3006105
0001c0 e2 70 6b 3d bc af 92 3e 73 34 ce be f0 0b 1a bf
       0.0574807 0.286497 -0.4027439 -0.60174465
0001d0 c1 7a 9c 3e b4 a7 2c bf b0 b1 92 be d0 e3 c8 3e
       0.30562404 -0.67443395 -0.2865119 0.39236307
0001e0 6f 52 89 3e d9 36 44 3f ac 7e 9a bd da 6f f5 bd
       0.26820704 0.7664619 -0.07543692 -0.119842246
0001f0 63 d6 2b 3e 6b 2b 83 be 68 e9 ff 3e 24 54 36 bf
       0.16781001 -0.25619063 0.49982762 -0.7122214
000200 dd ec dd be 7c 20 d7 3e 6f 08 c9 bd df e1 a4 be
       -0.43344775 0.4201697 -0.09816062 -0.32203576
000210 f4 cb 7c 3f c8 26 bf be 99 ec 0b 3f 0d e1 98 3d
       0.9874871 -0.37334275 0.54657894 0.074648
000220 82 4a c7 bd 39 ea 8f be f5 31 d4 be 53 e3 10 be
       -0.09731008 -0.28108385 -0.41444364 -0.14149217
000230 af f7 b7 bf b0 05 2e bf 1c b5 51 3e 7c 7d 0b 3f
       -1.4372462 -0.6797743 0.20479244 0.5448835
000240 ba d0 c5 3c a1 f0 d0 bd d1 ff 27 be 89 da ad 3c
       0.02414738 -0.10202146 -0.1640618 0.02122237
000250 ee da 4d be d0 b9 4b be 76 56 b9 be 09 9c 07 3f
       -0.20103046 -0.198951 -0.36198777 0.52972466
000260 da 5c 8b bc 9d 94 54 bf d9 dd 93 be a5 05 e4 be
       -0.017012049 -0.83039266 -0.28880194 -0.44535556
000270 79 39 8d 3d d6 e0 f3 3e 04 6f a7 3e d1 b5 5a 3f
       0.06895728 0.47632474 0.32701886 0.8543368
000280 37 b2 95 be f6 b2 14 bf 20 24 57 be 25 31 18 be
       -0.2923753 -0.5808557 -0.21009874 -0.14862497
000290 13 b3 01 be 35 84 4a 3f 9b 04 34 bf db 59 05 be
       -0.12665968 0.7910798 -0.7031953 -0.13022558
0002a0 93 1f 2c bf 9d 30 76 bf 8a 7c d5 3e fa 20 3d bf
       -0.6723568 -0.9616793 0.41696578 -0.73878443
0002b0 44 cf 4a bf 23 e4 78 bf 09 d2 81 3f db 30 ab be
       -0.7922251 -0.9722311 1.0142223 -0.3343571
0002c0 80 f4 01 3f f9 7c bb 3e b3 67 cb bd d8 0d 68 be
       0.507637 0.36618784 -0.099318884 -0.22661531
0002d0 0d 71 af bd ff 65 06 be 92 c1 a6 be ce cd d9 3a
       -0.085664846 -0.13124846 -0.32569557 0.0016617121
0002e0 25 08 41 3e 3e 79 13 bf 83 a4 5d bf 1d 19 3f 3f
       0.18850763 -0.57606876 -0.8657915 0.74647695
0002f0 da 96 18 bf e8 a9 de bf 4a b7 bc 3e e1 e1 b4 3d
       -0.5960518 -1.7395601 0.36858588 0.088321455
000300 b1 15 81 bf 8a 65 22 3f 11 45 4f bf 77 94 a9 3e
       -1.0084745 0.63436186 -0.8096476 0.33121082
000310 63 48 9c be 5b e9 71 3e 68 6d 31 be 91 fe e7 be
       -0.30523977 0.23624174 -0.17326891 -0.45311406
000320 77 4b e6 be 4a c2 1c bf ad 88 9b be d9 90 bd bd
       -0.4497945 -0.6123396 -0.30377713 -0.09256143
000330 01 00 d5 be e7 64 13 3f 72 56 d6 3d a4 16 f1 be
       -0.41601565 0.5757584 0.10465707 -0.47087586
000340 cc 05 cb 3d c1 bb d6 be 77 9b 65 3f 2f 80 5a 3d
       0.09913215 -0.4194012 0.89690346 0.0533449
000350 64 d8 81 3d b3 0f 0f 3d c7 3e aa 3e 1c 0c 5c 3f
       0.06340101 0.03492708 0.3325102 0.8595598
000360 ed 3c 10 be 2c 1d a1 bc 75 5e cc 3e 72 2f 14 bf
       -0.14085741 -0.01966723 0.39915815 -0.57884896
000370 85 07 7f 3f 96 f7 c1 be a2 bf 09 3e ba 2b c9 3e
       0.9962085 -0.37884206 0.13452008 0.39291173
000380 87 c1 84 bd 55 7f 61 be bf 21 11 bf 65 e9 f9 be
       -0.06482225 -0.2202123 -0.5669212 -0.48810878
000390 8d 8f db 3e bb 2f d9 3d 41 22 0d bf 5d d9 ca bd
       0.42882958 0.10604807 -0.5513039 -0.0990474
0003a0 06 e8 02 bf bc 27 94 3e 2f 9c 69 3f f4 fd 00 3f
       -0.5113529 0.28936565 0.9125394 0.503875
0003b0 db 31 c0 3d 1f 8f 2a 3f 6c 85 b8 3e 32 e9 5b 3e
       0.09384509 0.66624635 0.36039293 0.21475676
0003c0 3a 72 27 3f e4 fe 2c be 3d 00 07 3e 98 93 26 3f
       0.6540867 -0.16894108 0.13183685 0.6506896
0003d0 27 39 10 bf e0 d1 ca 3e 09 57 3c bd 59 36 3e 3f
       -0.5633721 0.39613247 -0.04598144 0.7430168
0003e0 bb a8 ac 3e e3 84 d6 bc a6 4b 1f bf de ec e2 3e
       0.3372248 -0.026186412 -0.62224805 0.4432134
0003f0 63 a8 64 3e 91 bb 84 3d 55 72 44 3e e5 42 1c 3f
       0.2232986 0.06481088 0.19184239 0.6103957

_rnn.bias_ih_l0 f4 [96]
000000 73 d4 1a 3e 0c bc a8 3e c3 6d ab be b5 dc 5c 3e
       0.15120105 0.32955968 -0.3348218 0.21568568
000010 de 3c a2 be 33 24 91 3e 53 4d 4b be 93 99 0a 3d
       -0.31687063 0.2834793 -0.19853716 0.033837866
000020 e0 cc 95 3e bd a7 09 3e d6 eb aa 3e 27 35 f1 3e
       0.2925787 0.13442893 0.33383054 0.47110865
000030 e6 02 9a 3c 5c 26 aa bd 06 78 ae bd 10 cf cf bc
       0.01880021 -0.08308098 -0.085189864 -0.02536729
000040 52 4e fc 3d 5c 68 b0 3e c6 56 38 3e d0 c1 c5 3e
       0.12319626 0.3445462 0.18001851 0.3862443
000050 8f b4 a1 bd 15 a6 2f bf 12 58 a6 3e f0 b6 1a 3e
       -0.07895767 -0.68612796 0.32489067 0.15108848
000060 c6 f0 65 be 0a 77 62 3e eb 0f b4 be f5 ab ad 3e
       -0.22455129 0.22115722 -0.35168394 0.33920255
000070 e2 07 c6 3d 5b 56 87 bd 2c d4 b5 be c5 10 17 be
       0.09669472 -0.06608268 -0.35513437 -0.14752491
000080 80 df 06 bf 97 ca 47 bf ca f9 c2 bd f9 f8 0f bf
       -0.52684784 -0.780435 -0.095203 -0.5623928
000090 93 49 f4 be c6 10 e4 be cd 1e 10 bf 1f e0 c2 be
       -0.47712383 -0.44544047 -0.56297 -0.38061616
0000a0 0a e9 01 bf f2 79 11 bf 4d 81 15 bf 43 a8 e9 be
       -0.50746214 -0.568267 -0.5840042 -0.45636186
0000b0 84 3a 25 bf 08 54 15 bf 74 a8 fd be 50 8f 0d bf
       -0.6454241 -0.58331347 -0.49542582 -0.552968
0000c0 de 2e 19 bf 1b 40 79 bf 4f da 96 be 88 37 2c bf
       -0.5983714 -0.9736344 -0.2946343 -0.67272234
0000d0 02 8f e3 be 5d 62 5a bf 97 7b 9b be b8 ab 8d be
       -0.44445044 -0.8530634 -0.3036773 -0.27670074
0000e0 9b f0 28 bf 9a 3d 4e bf f7 a6 7b bf 3e 09 05 bf
       -0.65992135 -0.80562747 -0.98301643 -0.5196723
0000f0 b7 91 0c bf 28 24 c9 be 3e ec 0b bf ff bc 16 bf
       -0.54909843 -0.39285398 -0.5465735 -0.58882135
000100 7b c3 82 bd a7 ff 25 3e b7 c2 2a 3e 12 c4 65 3d
       -0.06384941 0.16210805 0.1667584 0.05609519
000110 a1 e4 bb bd 54 9a 61 be fb d6 71 bc 05 f2 ed 3d
       -0.09174467 -0.22031528 -0.014760728 0.11618427
000120 5b 3f 07 be 4e 47 71 3e 7d fb 1e be 2a ba 10 bd
       -0.13207762 0.23562357 -0.15525623 -0.03533379
000130 92 0f 87 3e c3 49 45 bd a3 f6 8c 3d 96 a3 17 3e
       0.26379067 -0.048166048 0.0688298 0.14808497
000140 e9 c5 88 3c b5 76 84 bd 15 68 a7 3d 0d 84 5e 3e
       0.016695933 -0.06467954 0.08174149 0.21730061
000150 fd fa 99 bd 78 b8 02 be ca 9a 8b 3d 63 43 c4 bd
       -0.07518575 -0.12765682 0.06816633 -0.095831655
000160 9b fd 3a be 03 2e 51 3e 6f e8 52 be 12 a4 00 3e
       -0.18260805 0.20427708 -0.20596479 0.12562588
000170 3f 53 77 be 5f 11 6c 3d 27 e5 f3 3d e6 9e 0f be
       -0.2415285 0.057633754 0.11908942 -0.14025459

_rnn.bias_hh_l0 f4 [96]
000000 87 eb a0 bd e0 a8 78 3e ce 6b 07 bf 39 ac e8 3e
       -0.07857423 0.2428317 -0.5289887 0.45443895
000010 1c 3c 5b be 12 93 8e 3e 72 29 68 be ff 9f 13 3e
       -0.21409649 0.2784658 -0.2267206 0.14416502
000020 1b 79 94 3e 1b 86 48 3e 03 a5 c1 3e 95 6a 80 3e
       0.28998646 0.19582407 0.37821206 0.25081316
000030 13 31 a7 3c eb 85 dd bd 4d 36 3c be 68 d5 9f 3d
       0.020409143 -0.108165585 -0.18380089 0.07804376
000040 85 17 b1 3e 7f ea 09 3f 41 c9 f4 3e be 53 1a 3e
       0.34588256 0.5387344 0.47809795 0.15071008
000050 02 4e 11 bd c5 78 b6 be 6c 26 b0 3d 1a 00 51 3e
       -0.035474785 -0.35639015 0.086010784 0.20410195
000060 b9 9f 13 be b0 0b 1e 3e 88 75 cc be 7f 87 d8 3e
       -0.14416398 0.15434146 -0.3993342 0.42290875
000070 b5 80 d5 bb d3 78 fd bd f0 1d 08 be 7e 0b 7d be
       -0.006515587 -0.12376561 -0.1329267 -0.24711415
000080 f5 7f 96 be f4 fe 09 bf de 8f 86 be 0f 3e e7 be
       -0.29394498 -0.5390465 -0.26281637 -0.45164534
000090 49 65 17 bf f2 8f 1a bf dd 5c 0b bf ac 5b 29 bf
       -0.59138924 -0.60375893 -0.54438573 -0.66155505
0000a0 c3 15 11 bf 8a c0 02 bf e3 84 fa be 23 87 1e bf
       -0.5667383 -0.5107504 -0.4892951 -0.6192495
0000b0 66 07 33 bf 8e 41 0c bf 52 fa 47 be 35 93 16 bf
       -0.69933164 -0.5478753 -0.19529083 -0.5881837
0000c0 65 28 f5 be 29 1b 43 bf 41 35 8d be c5 38 08 bf
       -0.4788238 -0.7621332 -0.27579692 -0.53211623
0000d0 b6 ec 3d bf ea 3f 61 bf e2 30 8b be f3 3f ff be
       -0.7418932 -0.8798815 -0.27185732 -0.49853477
0000e0 d3 68 10 bf f0 65 09 bf 31 a6 84 bf 1d fd 10 bf
       -0.5640995 -0.5367117 -1.0363218 -0.5663622
0000f0 5c 26 de be ac b6 b7 be 68 e6 e7 be 69 8d 21 bf
       -0.4338864 -0.35881555 -0.45292974 -0.631064
000100 e6 f6 8c bd af 88 0a bd 98 05 45 be c6 48 56 be
       -0.0688303 -0.033821758 -0.19240415 -0.20926198
000110 75 8d 14 3e d0 7f 26 be 68 af bb bd 46 a6 b7 3e
       0.14507087 -0.16259694 -0.091643155 0.35869044
000120 4f 7a 9f 3d 28 b0 78 be be fa 25 3e 77 33 7f 3e
       0.077870004 -0.24285948 0.16208932 0.24921976
000130 c7 65 e0 3d c3 fc 51 3e 63 43 7f bc b2 63 89 3d
       0.109569125 0.20506577 -0.015580031 0.067084685
000140 c7 31 66 bd 72 52 b0 bd 70 71 b1 be 6f 41 9b bd
       -0.056199815 -0.08609475 -0.34656858 -0.0758084
000150 e8 03 9e 3e 2f e7 9e 3d 10 e0 0a 3e da 5c 15 be
       0.30862355 0.077589385 0.13562036 -0.14586201
000160 16 dd bc 3d 96 36 c5 bd 0e 00 42 3e e8 71 99 bd
       0.09221856 -0.09629552 0.18945333 -0.07492429
000170 94 28 ee be e0 71 d1 3e 10 18 24 3e 12 76 21 3d
       -0.46515334 0.40907192 0.16024804 0.03941924

_rnn.weight_ih_l0_reverse f4 [96, 16]
000000 53 77 b1 be 09 12 da 3e 46 7e c4 be 3f d5 46 3f
       -0.3466135 0.42591885 -0.3837759 0.7766914
000010 e5 ad b3 be 0e 52 45 be 6e b9 19 be 6c 7b aa 3e
       -0.35093608 -0.19269583 -0.15012142 0.33297288
000020 8a 2f 34 3c 05 e1 4a be a7 2c 26 bd 13 a7 92 be
       0.010997662 -0.198124 -0.040569928 -0.28643093
000030 7b 92 81 3e 76 2f 11 3e 4e bb ac be b4 e9 21 bd
       0.25307068 0.14178261 -0.33736652 -0.039529517
000040 3b cd 3a 3e 29 eb 58 3e 67 8f ab 3e bb 6f 23 3f
       0.18242352 0.21183456 0.33507845 0.6384236
000050 ab 1b e6 be bd 9d 1c bf ff 19 09 bf ee 8c 0d 3f
       -0.44942984 -0.6117819 -0.5355529 0.55293167
000060 56 3c 95 be d8 7c 57 3c fa e0 47 3e 28 c9 b7 3e
       -0.29147595 0.013152324 0.19519415 0.35895658
000070 27 b7 28 be 94 f5 ad be b7 bf 5e 3f 6b 43 91 bd
       -0.16476117 -0.33976424 0.87011284 -0.07092937
000080 fa 3e 3c bf fd 01 f2 be d7 e2 b8 3d ec f6 c7 be
       -0.73533595 -0.47267142 0.09027641 -0.39055574
000090 42 73 b4 be 25 da 15 3e a6 e0 9f 3c 83 2f 02 3e
       -0.35244185 0.14633997 0.0195163 0.12713437
0000a0 ef aa 89 be 36 0a e9 3d f1 85 40 3e d0 84 b5 3e
       -0.26888224 0.11378901 0.18801095 0.3545289
0000b0 37 80 17 3e 36 91 0e bf fe 4f 4d 3c 96 0a 33 3f
       0.14795004 -0.55690324 0.012531279 0.6993803
0000c0 82 f1 85 be 80 c4 11 be 24 85 19 bf 7f d7 77 be
       -0.26160818 -0.14235115 -0.5996878 -0.24203299
0000d0 dd c6 8e be d8 1f ad bd d1 e1 48 3f 84 25 87 3e
       -0.27886096 -0.08453339 0.7846957 0.2639581
0000e0 70 5e 99 be a4 fa 0a 3e ec e5 2a bd 5c 94 f0 be
       -0.29954863 0.13572174 -0.041723177 -0.4698819
0000f0 8c 03 0b bd 81 d9 52 3e 69 45 4b 3e 98 e8 25 3e
       -0.03393893 0.20590784 0.19850697 0.16202009
000100 0f 27 8d 3e 75 15 45 bd 80 b3 de be 76 b9 a6 bc
       0.27568862 -0.048116166 -0.43496323 -0.020352107
000110 2b 5b 2b 3e 1a bd ed 3b 68 1f 9a 3e 1c e9 ca be
       0.16733997 0.0072552087 0.30102086 -0.39630973
000120 a7 94 6e be 2a 9d 45 3e 66 58 ec be 50 a3 1f bf
       -0.23298894 0.19298235 -0.46161193 -0.6235857
000130 7c bc f8 3e cc 46 04 bf 93 73 d1 bd 2c 5a 44 3f
       0.48581302 -0.5167053 -0.10227122 0.7670009
000140 92 53 5b be b9 5e 18 3f e8 6a 73 3e 1f f3 0b bd
       -0.21418598 0.59519535 0.2377125 -0.034167405
000150 0b 6f 82 be cb a9 2c 3e d9 92 31 be 69 80 5a 3e
       -0.25475344 0.16861646 -0.17341174 0.21338047
000160 d5 83 1d 3f 39 19 59 3f b7 f9 18 be c9 1d f6 3e
       0.61529285 0.8480411 -0.14939009 0.480696
000170 ef fc e7 3b 49 e5 2e bf e4 14 fc 3c 8c 7d 4b 3f
       0.0070797126 -0.6831861 0.03077168 0.79488444
000180 5b f5 30 be 5a f0 c8 be d2 93 80 3e 07 df ad be
       -0.17281096 -0.39245874 0.25112778 -0.3395922
000190 02 51 8f 3d d3 15 21 be b1 fa 16 be cc 99 7c bf
       0.06997873 -0.15730982 -0.14744069 -0.98672175
0001a0 65 72 fc 3e a5 3b 8d 3d df 82 80 3d 63 5b 54 bf
       0.49306026 0.06896142 0.06274962 -0.82951945
0001b0 10 be 43 be af 06 a0 be 1f 3c 82 bf c4 74 5d 3f
       -0.19115472 -0.312551 -1.0174598 0.86506295
0001c0 92 65 46 bf a7 38 ea bd 43 5c 21 bf a1 84 2c be
       -0.77498734 -0.11436587 -0.63031405 -0.16847469
0001d0 1a 5b 08 3f 94 d4 c7 3d 58 93 83 3d 33 55 5d be
       0.5326401 0.09757343 0.06424588 -0.21614532
0001e0 c6 f0 29 be d8 ac b0 3d 81 a7 6b 3d 30 07 98 be
       -0.16595754 0.08626717 0.05753279 -0.29692984
0001f0 e2 b2 c0 be 4d 2e 34 bf 8e 32 4f 3f e6 5b b5 3d
       -0.37636477 -0.7038315 0.80936515 0.08855419
000200 8b ad f4 be aa e6 0d 3e cf e5 7e be e6 3f ba 3d
       -0.47788653 0.13857523 -0.24892353 0.09094219
000210 cd 7e 88 3c 32 5e 1b bf 48 cc 80 3f 2b d5 16 3e
       0.016662026 -0.60690606 1.0062342 0.14729755
000220 e7 4f 34 3f a0 04 8c bd 5b 99 e2 be a1 cd 8e be
       0.7043442 -0.0683682 -0.44257626 -0.27891257
000230 41 a7 9d be e9 37 e4 3e 66 da 99 bd 02 d5 36 3f
       -0.30791667 0.44573906 -0.07512359 0.71418774
000240 9e 89 d0 3b 05 fd 64 3e 41 cc 90 3d 86 36 18 3e
       0.0063640615 0.22362144 0.07070208 0.14864549
000250 1a 1f 9a be 86 ed df be db 38 ee 3e 39 09 06 bf
       -0.30101854 -0.43735904 0.46527752 -0.5235782
000260 7d 3c a9 be c5 fa e8 bc b6 e6 e9 3e 51 70 01 3f
       -0.3305396 -0.028439889 0.4568383 0.50562006
000270 96 57 b4 be 4d 51 9d be 62 f6 d7 3e 10 47 53 3e
       -0.35223073 -0.3072609 0.42180163 0.20632577
000280 f9 32 aa 3d 6a 6f 0d 3f d4 09 1b bd 4d 43 a3 3d
       0.083105035 0.5524813 -0.03785117 0.07971821
000290 a1 ff ba bd ae ca 88 be 9d 88 e5 bd 46 6a 83 3e
       -0.091307886 -0.26717132 -0.112076975 0.25667018
0002a0 fa 20 00 3f 40 b4 19 3c 9d 67 96 3e ae 7c 05 be
       0.5005032 0.009381354 0.29375926 -0.13035843
0002b0 89 cf f5 3e 27 59 30 bf eb 67 ef be 7e 4c 1a bf
       0.480099 -0.68886036 -0.4675897 -0.6027297
0002c0 5e cd f3 3d 9e da 3a bd e8 35 5e bf c6 1b c1 3e
       0.11904405 -0.045618646 -0.86801004 0.37716502
0002d0 ba 07 be be 3b 49 8f 3d 48 4b b0 3c 69 d1 78 bf
       -0.3711527 0.069963895 0.021520272 -0.97194535
0002e0 54 61 44 be ac 85 7a 3e c0 6c 00 bf f9 ac 4b be
       -0.19177753 0.24465054 -0.5016594 -0.19890203
0002f0 4b a7 83 3e b8 d4 20 3e 00 9f ad 3e 1a 47 25 3e
       0.25713572 0.15706146 0.3391037 0.16140404
000300 b7 ab dd 3e 99 75 f5 bd fa 5c 89 3e d5 01 83 be
       0.4329507 -0.119853206 0.26828748 -0.25587335
000310 e1 c6 93 be 75 c2 fa 3e e8 a6 2b 3f 57 ec fe 3e
       -0.2886267 0.48976484 0.67051554 0.49789688
000320 ba 1d 3a bf c6 d8 0b be d1 2d 70 3f 72 89 ae be
       -0.7270161 -0.13656911 0.9381991 -0.34089237
000330 14 73 92 3e 20 f4 01 be 1e ef 92 be 6c 53 35 be
       0.28603423 -0.12690783 -0.28698057 -0.17707604
000340 f9 f9 3e be 99 24 82 bf 1f a4 96 3d df b9 54 bd
       -0.18650045 -1.0167419 0.07355522 -0.051935073
000350 2c 6a 03 be 74 cb 13 bd 48 a8 60 3e 2f ab c5 be
       -0.1283347 -0.0360827 0.21939194 -0.38607165
000360 84 97 e6 3e ad 82 77 3e ef 25 3e bd cf b0 90 3b
       0.45037472 0.24170943 -0.046422895 0.0044156085
000370 cd 0e 69 bf 57 03 a2 bd 7d 95 1a 3c 7c 31 cd 3e
       -0.9103821 -0.07910793 0.009435055 0.40076816
000380 74 b5 0b 3f d6 a0 41 bf 9d 5f 24 bf cd 22 03 3f
       0.5457375 -0.7563604 -0.64208394 0.51224977
000390 1c f5 d4 be 34 e6 b4 bf d5 04 8b 3d a8 ed c6 be
       -0.41593254 -1.4132752 0.06788031 -0.38853192
0003a0 6a 18 9e 3d 63 54 8d 3a 41 fd 73 be 80 30 e6 be
       0.077195 0.0010782595 -0.23827077 -0.44958878
0003b0 7c 41 44 bf 18 fd b0 be f8 33 ec 3e ff 9f 83 3e
       -0.7666242 -0.34568095 0.461334 0.25708005
0003c0 9e 81 74 bd 0c 84 0f ba 49 59 be 3e 9f 50 f7 3d
       -0.059693925 -0.00054746936 0.37177494 0.12075924
0003d0 0c a8 53 bf 9c c9 83 3e 39 70 d5 3e 3b 11 a0 be
       -0.82678294 0.25739753 0.41687182 -0.31263146
0003e0 44 87 76 be 24 4d 21 bf 20 66 cd be a0 ac e1 be
       -0.24075037 -0.6300833 -0.40116978 -0.44077015
0003f0 85 79 f0 3c c4 d5 ab bc a6 73 1e bf d8 a4 73 bd
       0.02935482 -0.020975955 -0.61895216 -0.05948338

_rnn.weight_hh_l0_reverse f4 [96, 32]
000000 92 c2 16 3f 33 6d c8 3e 22 ab 02 3f 76 f4 b1 3e
       0.5889064 0.39145812 0.5104238 0.3475682
000010 17 4c 02 3f 59 cd 96 3e e5 90 e1 3d a4 f6 98 3f
       0.50897354 0.29453543 0.110139646 1.1950269
000020 1e 5e 15 3f 1e 9d ac bd 6d ca 7f bc 7b 19 e0 bd
       0.58346736 -0.08428405 -0.015612227 -0.1094236
000030 84 b7 f1 be b2 93 b3 be 73 a8 06 3d 5a ec 05 3d
       -0.47210324 -0.3507362 0.03287549 0.032696106
000040 8f 7e 0f bf 03 73 48 be fd be fb be d9 0c 5b be
       -0.5605249 -0.19575123 -0.4916915 -0.2139162
000050 80 66 72 bd 4f 94 4e be 42 76 34 be 81 b6 fc 3c
       -0.059179783 -0.20173763 -0.17623237 0.030848743
000060 01 a3 b1 3e 5d 8a a1 bd e3 11 9a 3e 49 c2 6b bf
       0.34694675 -0.07887719 0.3009177 -0.9209333
000070 19 fd e5 3c 90 78 2e be 78 ae 74 be 3e ce 8b 3e
       0.028074788 -0.17038178 -0.2389468 0.27305788
000080 a6 c8 d8 be 93 18 c0 3e fd 94 04 be e1 5d 8f 3e
       -0.42340583 0.3751875 -0.1294746 0.2800131
000090 3f 1b 34 be fd 14 ff be 4a 81 ac be 98 55 53 3f
       -0.17588519 -0.498207 -0.3369239 0.8255248
0000a0 b5 61 0d 3e 5f b0 9e be fb 79 4b 3f e5 14 4a be
       0.13806804 -0.30993935 0.79483 -0.19734533
0000b0 30 b6 8f be 3f b1 89 bd 94 a4 a8 be e6 81 7e 3e
       -0.28068686 -0.0672326 -0.32938063 0.2485424
0000c0 75 31 bd be d4 8c de be 45 ae fa be 5f f6 95 be
       -0.36951795 -0.43466818 -0.48961082 -0.2928953
0000d0 7e bd 41 bd 37 46 05 bf 9f 5f dc 3d ec e0 e4 3e
       -0.047299854 -0.52060264 0.10760426 0.44702852
0000e0 47 fc f0 be 0c d4 43 3d 97 a7 64 3e e9 10 5f 3e
       -0.47067472 0.047809646 0.22329555 0.21783794
0000f0 d1 7a 3a bf 3f 96 f9 bd 28 fc fc 3e 5c 76 03 3e
       -0.7284365 -0.1218686 0.4941113 0.1283812
000100 f2 07 01 be fa 13 83 3c 1d 6a 45 3e 79 ba 2f 3f
       -0.12600687 0.016000737 0.1927876 0.6864391
000110 ed d7 1c 3f 00 0f cd bd 31 ab 86 bb de c8 b1 bd
       0.61266977 -0.10012627 -0.004109763 -0.086808905
000120 ea e0 51 3f 17 71 11 bf bc f1 d2 bd ce 57 71 bd
       0.81983817 -0.56813186 -0.103000134 -0.058921628
000130 78 1d 80 3e 0c a9 3b be 7b ce 92 3e 51 a0 81 bd
       0.25022483 -0.18326205 0.28673157 -0.06329406
000140 7b 22 01 3f dd 7c bc bc 1e f8 55 3f df 29 d3 be
       0.5044324 -0.023008758 0.8358172 -0.41242883
000150 e2 99 f7 3e 98 14 b2 3e e2 c0 82 3f 52 9f af 3e
       0.4835959 0.34781337 1.0215113 0.3430124
000160 bd 58 64 3f a2 f6 d8 be e0 9a 37 be a5 c4 be be
       0.89197904 -0.42375666 -0.17930174 -0.37259403
000170 6b 21 4c 3f 4e d6 a3 3e 29 94 e4 bd 5a 2c 48 3e
       0.7973849 0.3199944 -0.11161072 0.19548169
000180 19 f1 76 be 6a 16 0c be 07 2d 0f bf 68 03 1e bd
       -0.24115409 -0.13680425 -0.5592808 -0.038577467
000190 39 42 91 3d 44 21 46 3e c1 0e ae be be 2e 97 3e
       0.07092709 0.19348627 -0.3399563 0.2952785
0001a0 1c b1 7c be 34 5a 77 3e 4c d0 23 3e 5f 65 44 3f
       -0.24676937 0.24155504 0.15997428 0.7671718
0001b0 08 83 ad be 09 55 b3 be 1f 11 4e 3d 9c 16 e6 be
       -0.3388903 -0.35025814 0.050309297 -0.44939125
0001c0 34 7a bc be 0e 4b 26 3e 19 9e 1c 3f a4 fb 20 3e
       -0.36811984 0.16239569 0.6117874 0.15720993
0001d0 d7 d8 b6 be bf e2 4c be 5f 10 63 3e 56 23 55 be
       -0.3571231 -0.20008372 0.22174214 -0.20814261
0001e0 58 82 9a 3e fa 19 a9 bd 69 41 87 3d 73 90 b7 be
       0.3017757 -0.08256908 0.06604273 -0.35852394
0001f0 b6 96 63 be 8c d4 94 3f c4 33 bd 3d 11 4f 78 3e
       -0.2222546 1.1627364 0.09238389 0.24248911
000200 e8 e6 bf 3e f0 96 c5 3e f4 20 50 be d2 15 93 be
       0.37480855 0.3859172 -0.2032507 -0.28727585
000210 93 91 64 3f b0 7c a5 bd ae 37 47 be 39 57 cb 3e
       0.8928463 -0.08080423 -0.19454834 0.39714983
000220 16 39 eb bd dc 3d c1 3e 98 7a 08 3f c6 bd d3 be
       -0.11485498 0.37742507 0.53312063 -0.41355723
000230 0a f9 15 bf 18 06 b7 3e 19 cc a4 be 23 91 43 be
       -0.5858313 0.35746837 -0.32186964 -0.19098334
000240 d0 1b bb 3e 72 5b 65 3e 67 b6 3b 3f f6 b8 d5 bc
       0.36544657 0.22398165 0.733252 -0.026089173
000250 20 c8 ea bc cd e4 03 3d 3b 3c f0 be 0e 66 dc be
       -0.02865988 0.032200623 -0.46920952 -0.43046612
000260 31 27 4c bf 73 d8 8b 3e 20 9d 54 3f 40 0e 68 bc
       -0.797473 0.27313575 0.83052254 -0.014163554
000270 6d fa 64 3e d6 19 c6 3e ac 7d 64 bc ea 70 3b 3f
       0.22361155 0.38691586 -0.013945978 0.7321917
000280 1f 3d dc be 8b ce 1f be cf a9 87 be e6 8c 09 bf
       -0.43015382 -0.15606134 -0.2649674 -0.5373062
000290 d0 e7 15 bf b6 17 8b 3d 65 53 00 3f ef 27 9b 3e
       -0.5855684 0.06791632 0.5012725 0.30303904
0002a0 b1 54 2b bf b3 64 49 3e f4 32 11 3e 16 6b ed be
       -0.66926104 0.1966732 0.14179593 -0.46370763
0002b0 ea df ad bd 94 ac 54 bb 3c 9e 6d 3d bc 26 95 3e
       -0.08489974 -0.0032451497 0.058012232 0.29131114
0002c0 69 3a 44 bf fe 40 d6 bb 5e 0e 24 be 6a 38 ed 3d
       -0.76651627 -0.0065385094 -0.16021106 0.11583026
0002d0 57 35 b4 3e 80 ea ab 3e 7b 77 fb bd aa fd 9a be
       0.35196945 0.33577347 -0.122786485 -0.30271655
0002e0 51 65 33 3e 9b cc 06 bf 0f 88 0c be 23 64 28 3e
       0.17519118 -0.52655953 -0.13723777 0.16444449
0002f0 20 e8 a6 be 35 5a 73 bf b8 50 73 3d 58 cd 6b be
       -0.32598972 -0.9505952 0.05940315 -0.23027551
000300 d3 1f 1d be a5 e6 f8 3e 35 68 94 bf 95 cc d5 bd
       -0.15344171 0.48613468 -1.1594301 -0.104394116
000310 2c f1 87 3e c5 3d c6 3e 04 d0 6e be cc 21 23 be
       0.26551187 0.38719 -0.23321539 -0.15930861
000320 42 89 a2 be ea a9 fb 3d 30 1a 87 3e 58 38 21 be
       -0.31745344 0.12288268 0.26387167 -0.1574415
000330 a8 6b 32 be 9a ae 8d be 03 92 5f 3f 43 31 c9 be
       -0.1742388 -0.27672273 0.8733217 -0.39295396
000340 8e 84 91 be 50 20 bb be 40 52 93 3d d6 19 04 3f
       -0.28421444 -0.3654809 0.07193422 0.5160192
000350 3c 3c 94 be 5b 87 cb 3b 04 31 fc 3e 35 9c 4d 3f
       -0.28952205 0.006211204 0.49256146 0.8031648
000360 52 20 03 3e a6 9e ab 3e 69 cc cf 3d 59 2a da bc
       0.12805298 0.33519477 0.1014641 -0.026631521
000370 5a 13 e8 be 16 97 ce ba 38 b5 63 3e bb 70 d7 be
       -0.45327264 -0.001576158 0.22237098 -0.42078194
000380 be 7f 82 bf 30 b7 73 3f 2f b4 0d 3f 26 14 7b 3d
       -1.0195234 0.95201397 0.55353063 0.061298512
000390 9d d0 3c be 36 04 a1 3e c6 67 eb 3d 8c 1e 26 be
       -0.18438955 0.31448525 0.114944026 -0.1622259
0003a0 58 1c 2a bf 55 98 06 3e c7 54 53 3e b6 07 e7 3e
       -0.664495 0.13144048 0.20637809 0.4512307
0003b0 87 25 b2 bc b7 e8 59 3f b5 85 ac bc 90 5b 7c be
       -0.02174641 0.8512072 -0.02105985 -0.24644303
0003c0 cd 79 10 bf 99 e3 b9 be c0 a4 7f bd 0e f6 36 bd
       -0.56435853 -0.36306456 -0.062412977 -0.04466825
0003d0 8f df 49 3e bc b3 b1 be 0c d9 36 bc 26 b5 b6 3d
       0.19714187 -0.3470744 -0.011160146 0.0892127
0003e0 ed b6 33 bf 59 ce 9c 3e 9f 0e 85 be b3 15 46 bd
       -0.70201 0.3062618 -0.25987718 -0.048360538
0003f0 c2 74 d3 be c1 7a 8e be 67 8a 37 3e d8 3e db 3d
       -0.41300017 -0.2782803 0.1792389 0.10705346

_rnn.bias_ih_l0_reverse f4 [96]
000000 00 bd d5 3e eb fb c8 3e d6 2c cf bd 79 21 84 3d
       0.41745758 0.39254698 -0.10115974 0.06451697
000010 b5 0f 3a 3e 83 22 20 be 75 12 de bd a9 82 8b be
       0.18170054 -0.15638165 -0.10843364 -0.27248123
000020 72 6a 64 be 1d 3d 94 bd 53 20 04 3e 63 4d ec 3d
       -0.2230623 -0.07238219 0.12902956 0.11538198
000030 c1 32 c6 3d e6 7c 90 3c fe 88 0a bd 93 0b 21 3e
       0.09677649 0.017637681 -0.033822052 0.15727071
000040 72 d0 8f 3e a8 35 48 be a4 ed 9d 3e 81 d0 d5 bd
       0.2808872 -0.19551718 0.30845368 -0.104401596
000050 f4 9d d5 be 7a 90 44 3f 31 a8 b8 3d 8a 20 21 be
       -0.4172207 0.76782954 0.09016455 -0.15735069
000060 e6 30 94 3e 7f e4 f5 3b 6c d6 36 bb af e9 27 3e
       0.28943557 0.0075040455 -0.0027898801 0.16397737
000070 ca e2 bd 3e bb ca 64 3e 5c 75 d2 3e 7b 11 96 3e
       0.3708709 0.2234296 0.41105163 0.29310212
000080 e5 a9 f1 be 99 bb 12 bf 13 94 f8 be d1 98 aa be
       -0.47199932 -0.573175 -0.48550472 -0.33319715
000090 73 34 81 bf 39 80 bf be 05 42 32 bf 5c ec 9c be
       -1.0094131 -0.37402514 -0.6963199 -0.30649078
0000a0 57 fc c2 be 53 d0 25 bf b7 48 03 bf 5a c6 05 bf
       -0.38083145 -0.64771 -0.5128283 -0.52255785
0000b0 25 1b 8b be 0d 09 9d be 89 de 37 bf b7 9c e5 bd
       -0.27169147 -0.30670968 -0.71823937 -0.112115316
0000c0 08 a5 b8 bd 22 53 12 bf c7 1b d0 be f9 00 e6 be
       -0.09015852 -0.571581 -0.40646192 -0.44922617
0000d0 b8 77 02 bf 24 19 e6 be ed 65 e7 be 60 ee 9c be
       -0.50963926 -0.44941056 -0.4519495 -0.30650616
0000e0 03 f1 d0 be 9b dc fb be 71 fb ed be 45 66 f6 be
       -0.40808877 -0.49191746 -0.46480897 -0.481249
0000f0 7b 5a 01 be f4 eb 00 bf e8 b9 0f bf 93 a5 51 bf
       -0.12632172 -0.50360036 -0.56143045 -0.8189327
000100 57 70 9c 3d 29 42 d0 3d 5d f7 c6 3e 27 bd 02 3e
       0.076386146 0.10168869 0.38860598 0.12767468
000110 a0 a3 53 3d f2 22 ba 3d ad 40 94 3d a0 0f e0 bd
       0.051669717 0.090886965 0.072388984 -0.1094048
000120 94 87 db bd 63 32 5f be 10 c4 47 3e 58 37 f2 3d
       -0.10719219 -0.21796565 0.19508386 0.11826962
000130 23 a3 67 3e 96 6c 2a bd 90 ee 60 3e f6 8f 9e bb
       0.22620825 -0.041607462 0.21966004 -0.004838939
000140 96 bb a8 3d 3b 88 03 bd 4a 1a 65 3e 23 96 45 be
       0.08238904 -0.03211234 0.2237331 -0.19295554
000150 a1 e6 c9 ba d2 16 53 3e db a6 45 bd e3 3a e7 3d
       -0.0015403816 0.20614174 -0.04825483 0.112905286
000160 df 2a 2f 3e 6a e2 9f bd 98 17 5a 3d 9a 18 0e be
       0.17106198 -0.07806857 0.053245157 -0.13876572
000170 4c 99 e4 3d e4 a3 20 be 78 1a 17 be 59 8f 8d 3d
       0.111620516 -0.1568752 -0.14756191 0.06912107

_rnn.bias_hh_l0_reverse f4 [96]
000000 20 4a 0f 3f 97 94 6f 3e bf af 74 be 38 eb c0 3e
       0.5597248 0.23396526 -0.23895167 0.37679458
000010 9e 28 03 3f 81 01 2d be c5 5e b4 bd 03 62 12 bd
       0.5123385 -0.16895105 -0.08807138 -0.035738003
000020 c9 d3 9b be cc 6d 46 3e 6b 4e 1a 3e 8b f0 31 3e
       -0.30435017 0.19377822 0.15068977 0.17376916
000030 8b 05 14 be 87 fa bd bd 05 1c 00 be 0f 6f f7 3b
       -0.1445524 -0.092763 -0.12510689 0.007551081
000040 c8 c1 cd 3d 85 d6 6d be 5b 05 26 3e 00 b4 8b be
       0.100467265 -0.23226364 0.1621298 -0.27285767
000050 d8 2b 06 be ad 41 ef 3e 66 3e ce 3e 08 8f 51 bd
       -0.13102663 0.46729794 0.4028198 -0.051161796
000060 fd 10 c8 bc 3f 01 35 3d 7f b2 bc bd 78 8a 22 bc
       -0.024422163 0.04419064 -0.09213733 -0.009920709
000070 ba af a6 3e 58 51 9c 3e 40 af b4 3e 87 5b 94 3e
       0.32555944 0.3053081 0.35289955 0.2897608
000080 79 4f 0a bf ca c8 21 bf 36 e8 15 bf 37 e3 d3 be
       -0.54027516 -0.63197005 -0.5855745 -0.4138429
000090 d4 27 56 bf 1a 70 39 be 29 04 01 bf d1 0e 01 bf
       -0.8365452 -0.1810917 -0.5039697 -0.50413233
0000a0 70 a0 d6 be ab 2d 15 bf 77 cb 2f bf ce 62 ca be
       -0.4191928 -0.5827281 -0.6866984 -0.39528507
0000b0 94 06 71 be f4 6a c2 be 32 e0 0f bf 50 0e e8 3d
       -0.23537666 -0.37972224 -0.5620147 0.11330855
0000c0 70 6f 97 be 12 ad 16 bf f1 f6 1d bf 43 d8 30 bf
       -0.29577208 -0.58857834 -0.6170493 -0.6907999
0000d0 89 f8 01 bf b1 28 df be 33 79 e5 be 00 77 8e be
       -0.5076986 -0.43585733 -0.4481903 -0.27825165
0000e0 37 aa f8 bd 7d 00 2b bf d1 95 99 be 1b 9a 0b bf
       -0.12141841 -0.6679762 -0.29997113 -0.5453202
0000f0 1a c9 b1 be 92 6d bd be 0c d6 c1 be 54 c8 2d bf
       -0.3472374 -0.36997658 -0.37858617 -0.678838
000100 c6 30 ae bd ce 92 c1 3d 7f c1 6e be 9c 91 c4 3e
       -0.085053965 0.09451829 -0.23316 0.3839234
000110 5e d4 87 be fa 03 fd 3d 28 98 70 be 86 d8 80 be
       -0.2652921 0.12354274 -0.23495543 -0.25165194
000120 80 06 2a 3e 1e e4 93 be b7 e0 fe bd 62 c9 a1 be
       0.16604042 -0.28884977 -0.12445205 -0.31598955
000130 78 1f 1b be bb 98 5a be ff 2d 78 3e 09 ea 11 be
       -0.15148723 -0.21347325 0.24236296 -0.14249434
000140 58 9f 64 be 6d b6 21 3e ab e3 41 be e2 fc 24 be
       -0.2232641 0.15792246 -0.18934505 -0.16112092
000150 0d 29 79 be bb c9 05 3c 44 a4 d9 3d 69 1b ef 3c
       -0.24332066 0.008165772 0.10627034 0.029187875
000160 fc 4c 8c 3d 61 64 7c be fc 41 67 3e a1 b2 bb be
       0.06850621 -0.24647667 0.22583765 -0.3665972
000170 69 c2 73 bd cd c1 dd 3e ba 0d e6 be e0 f2 f9 3d
       -0.059511576 0.4331192 -0.44932348 0.12204528
